checkpoint_critic.pth (torch_old, 297423 bytes, 9 tensors)

fcs1.weight f4 [256, 24]
000000 26 60 05 3a d3 54 6a 3b ab 8e ca 3c 81 6b c5 3c
       0.00050878746 0.0035756126 0.024726233 0.024099113
000010 8e b6 ca 3d f5 89 07 3e 07 76 c7 bc ef e5 73 bc
       0.09898101 0.1323622 -0.024348272 -0.014886363
000020 20 62 d8 3c d3 f2 a3 3d 1c 12 56 3b 1e 6d db bb
       0.026413977 0.080052994 0.0032664603 -0.0066963574
000030 47 a1 1d bc 62 0a 47 3d 6e da b8 bb b6 a4 34 bc
       -0.009620971 0.048593886 -0.005641273 -0.011025598
000040 aa c5 94 3d 0a 49 ae 3d 59 27 7c bc 5c 3c d1 3c
       0.07264264 0.08510025 -0.015390241 0.025541477
000050 49 51 61 be 3a a0 e6 bd b5 ed 34 3c 20 f4 b8 3c
       -0.22003664 -0.112610295 0.011043002 0.022577345
000060 64 7f 0b 3d 65 a4 b8 3c 62 0b 06 bd 5d 3b 62 bc
       0.034057036 0.022539327 -0.0327257 -0.013808099
000070 cb 94 81 3d 23 2f 89 3c bf b2 95 3c 2f 65 32 bc
       0.06327208 0.01674611 0.01827371 -0.010888382
000080 d4 d0 0a bd f3 90 d0 bc 57 92 a0 bd 13 d2 3b 3d
       -0.03389056 -0.025459742 -0.07840412 0.04585464
000090 7c b1 c4 3d 07 11 8a 3d e4 b1 41 bd 81 aa 1d 3d
       0.09604165 0.06741529 -0.04728879 0.038492683
0000a0 57 77 15 bd b5 9c b2 bd 75 cb 15 bd 2d f3 a3 bd
       -0.036490764 -0.08721296 -0.036570985 -0.080053665
0000b0 54 d7 eb 3d 16 52 c7 3d 8b 26 1f 3d bf 8c 99 bd
       0.1151568 0.097324535 0.038855117 -0.07497548
0000c0 f4 22 84 3d e6 d2 1d bc 41 c6 9f bb c3 de fd 3c
       0.06451979 -0.009632802 -0.0048759286 0.03099001
0000d0 40 73 e0 3c 68 29 26 3e 8e f5 25 3d 83 d2 93 bd
       0.027398705 0.16226733 0.040517382 -0.07217886
0000e0 7b b5 92 3d b5 c3 4f 3b 6a b7 e3 bc ad 9e a3 3d
       0.07163521 0.0031702344 -0.02779742 0.079892494
0000f0 b2 e9 1b bd 5a 6b 31 3e f7 b9 16 3d 8c 86 d2 bc
       -0.038064666 0.17326108 0.036798444 -0.025698923
000100 9a fc 8f 3d 42 fd 33 bc 68 9f 6e bc dd dc 5b 3c
       0.07030602 -0.010985674 -0.014564373 0.013419357
000110 64 bc 6d bd 88 ad a5 3a 65 40 91 3d 99 bd b2 3d
       -0.05804099 0.0012640217 0.070923604 0.08727569
000120 69 4c 50 bb 86 29 44 3d a9 c2 75 bb c8 d6 ec 3c
       -0.0031783825 0.047891162 -0.003750006 0.02891101
000130 4c cc 0e 3e fa 1e cc 3d e4 a6 b5 3b 1a 57 df bc
       0.1394512 0.09966846 0.0055435766 -0.027263213
000140 c2 df b1 3c c9 be c9 3d b7 69 2b 3d bb da 0a bd
       0.021713141 0.098508425 0.041848864 -0.033900004
000150 51 e8 2e 3d 71 aa ed 3b a1 d7 1c bd e7 76 14 3d
       0.042702023 0.007252984 -0.038291577 0.036246207
000160 2f d3 a3 bb ef 71 bf 3d 24 d8 e1 3c 04 c9 90 3d
       -0.0049995403 0.09347903 0.027568884 0.07069591
000170 6f 55 8e be 79 a5 01 be 72 da e8 bc b8 ab 50 3d
       -0.27799556 -0.12660779 -0.028424475 0.050945014
000180 e9 70 ba bb ea 0d 47 bd 6f 14 04 3d b8 21 59 bb
       -0.0056897295 -0.048597254 0.03224605 -0.003313167
000190 2f 90 41 3d 32 47 e9 bb 24 b5 39 3c 07 fa f5 3b
       0.047256645 -0.007119083 0.011334691 0.007506612
0001a0 33 dc 87 bc fa 78 c3 3c 97 a8 31 bb 22 a6 4a bb
       -0.016584491 0.023861397 -0.0027108544 -0.0030921777
0001b0 26 03 dc 3d 5b 74 77 3d c4 bd 7a bc fe e8 f5 3c
       0.10742788 0.0604137 -0.015304033 0.030018326
0001c0 00 cc ec 3d 47 6d 1d 3d bc b0 96 3d d8 2f 7d bb
       0.115623474 0.038434293 0.07357928 -0.0038633253
0001d0 ad da 12 3e 09 9d d5 bc a2 4e 5c 3d 91 b4 dd 3a
       0.1434123 -0.026075857 0.053785928 0.0016914775
0001e0 28 d4 00 3d 08 54 22 be 2f f2 1f 3d 8c ab ac bd
       0.031452328 -0.15852368 0.039049324 -0.084311575
0001f0 c7 01 91 bc ad 40 23 3d 38 36 95 bc f7 47 f2 bc
       -0.017701043 0.0398566 -0.01821433 -0.029575331
000200 fe 9b 94 3d 98 bc 66 bd 2a 5e 03 bc 5f 38 3a 3d
       0.07256316 -0.0563322 -0.008018056 0.045463916
000210 0a 6c 5f bc 4d cf 0d 3c d0 44 8d 3c a3 80 be bc
       -0.013636598 0.008655381 0.017244726 -0.023254698
000220 cf f3 8e 3d d3 f4 1f be 48 c5 b5 3d 45 97 1b 3d
       0.069800965 -0.15620737 0.08875519 0.03798606
000230 4a eb 94 3c 78 51 c6 bd 9e ae b2 3d 3a c9 d3 bb
       0.0181786 -0.09683508 0.08724712 -0.006463197
000240 95 75 7a bc 6d 1a ea bb 4d ea ed bc 41 f3 13 3c
       -0.015286823 -0.0071442635 -0.029042387 0.009030164
000250 71 dc 02 be fd 70 4e bb f3 0a e1 3c da 40 b7 bc
       -0.12779404 -0.0031500452 0.027471041 -0.02236979
000260 d8 13 9b 3d 1c 1d 9c bc c6 39 0c 3d fa 19 1d bc
       0.07572144 -0.01905685 0.034234785 -0.009588713
000270 e6 05 ee bd f4 83 90 3d 6a 60 1b bd 0e 17 aa 3c
       -0.11622219 0.07056418 -0.037933744 0.020762946
000280 58 e0 09 bd e9 a9 61 bd ea cd 73 bc e8 03 8d bb
       -0.033661216 -0.05509368 -0.014880637 -0.004303444
000290 84 e0 3b 3f 90 74 31 bd 02 07 93 3c 1a 4a 6a bc
       0.7338946 -0.043324053 0.017947678 -0.014299894
0002a0 97 07 9a 3d ed ec 31 39 a6 0f 76 3d e1 1e 2e 3d
       0.07520979 0.00016968297 0.060073517 0.042509917
0002b0 e5 ba 93 3d 28 ce e0 3b 94 9a 98 3d a6 3c 91 3d
       0.07213382 0.0068605132 0.074513584 0.07091646
0002c0 a3 e5 0d 3c 36 34 36 3d 19 63 6e 3d ac 05 f2 bc
       0.008660707 0.044483386 0.058199976 -0.02954372
0002d0 9c 52 e5 3c 70 07 4e bd a1 83 3a bd 88 3a fd bc
       0.027993493 -0.05030006 -0.045535687 -0.030911699
0002e0 61 55 64 3d d6 a5 29 bc 7a 8b 81 bc 07 ec 61 bd
       0.055745486 -0.01035448 -0.015813578 -0.055156734
0002f0 d1 a6 dd bd 24 3d f9 3c ec e5 88 3d 9c 81 df 3c
       -0.10822833 0.030424662 0.06684479 0.027283482
000300 6d 4f 60 3d 33 af 10 3d 07 b9 c8 3c 7f 42 28 3e
       0.054763246 0.035323333 0.02450229 0.16431616
000310 94 b3 af 3d 3e b9 38 3d ce 81 93 bc b0 a0 0a 3e
       0.08579174 0.045098536 -0.018006232 0.1353786
000320 23 a7 c1 3c 37 a3 23 bd 20 b0 93 bb 8c 64 89 3d
       0.023639267 -0.039950576 -0.0045070797 0.06708631
000330 00 22 67 3d 30 2c 1b 3c be bb 93 3b 69 27 75 3d
       0.05642891 0.009470984 0.0045084646 0.059852038
000340 6e ea 07 3d de 76 63 3d 3d d7 13 3c 78 7b ed 3d
       0.033182554 0.055533282 0.009023485 0.115958154
000350 85 e3 b4 bd f9 21 24 bd 95 43 ae 3c 99 15 d5 3c
       -0.088324584 -0.04007146 0.02127246 0.026011275
000360 42 48 d1 3c fa 5f 9e 3d b5 5d 05 bd 46 38 f2 3c
       0.02554715 0.0773315 -0.03256007 0.029567849
000370 03 87 46 3d 09 92 68 3d cb 60 fb 3c 68 47 a7 bc
       0.0484686 0.056779895 0.030685803 -0.020419791
000380 d6 38 32 3c ea 94 3c 3e df 7f 18 bc c8 dd eb 3c
       0.010877809 0.18416181 -0.009307831 0.028792277
000390 25 95 80 3d 6d 0f 98 3d 5c 59 da 3b c6 18 0c bc
       0.06278447 0.07424817 0.0066634845 -0.008550828
0003a0 7d 3e 1c 3d 3d ee b9 3d ff 31 ab bc c2 38 87 bd
       0.03814553 0.090786435 -0.020897863 -0.066026226
0003b0 cc 11 a4 bd 3a da 54 3e df 8b 96 3c d9 18 7d bd
       -0.08011207 0.20786372 0.018377243 -0.061791275
0003c0 d3 00 24 bd c8 af 50 3d 2f 95 bb bc c6 49 8b bc
       -0.04003985 0.050948888 -0.022898285 -0.017002951
0003d0 06 97 30 be 4e 52 3a bd df a9 ac 3c d8 6e 90 3c
       -0.17245111 -0.045488648 0.021077095 0.01763098
0003e0 2a f9 90 3c 93 d8 a3 bd e3 02 22 3b b7 f2 62 bd
       0.017696936 -0.08000293 0.002472096 -0.055407252
0003f0 25 77 18 bf 1c 92 22 bc 91 84 d0 bb f5 6b 92 3c
       -0.595568 -0.0099225305 -0.0063634594 0.017873744

fcs1.bias f4 [256]
000000 ab 34 56 be a2 ea b7 3d 77 81 00 3e 71 af 91 3b
       -0.20918529 0.089802995 0.12549387 0.004445963
000010 03 56 c0 bd d8 9f 5a be d5 12 7e be eb c1 a1 3b
       -0.093914054 -0.21350038 -0.24811871 0.004936447
000020 82 39 3a be 6a 39 85 be 86 df db 3d d9 3d 6b bd
       -0.18186 -0.26020366 0.10735993 -0.05743203
000030 2d a5 ad 3c 7f 45 37 be 4b a8 59 3d 47 e7 68 3e
       0.021196926 -0.17897604 0.053139012 0.22744475
000040 7b bf 87 bd 16 66 8e 3d 48 e9 23 be 3b 03 a6 bd
       -0.06628319 0.06953065 -0.16006958 -0.08106085
000050 70 b1 b0 3d 3a a8 76 be 20 99 5e 3c 4a 78 aa bd
       0.086275935 -0.24087611 0.0135863125 -0.083237246
000060 56 8b 0b bd 51 09 4d be 73 bf 0c 3d 38 70 27 3d
       -0.034068428 -0.20023085 0.034362268 0.040878505
000070 95 3b 30 be 4e 6c d9 bc a9 ca 1d be 2a 0c 16 be
       -0.17210229 -0.026540902 -0.1540934 -0.14653078
000080 59 e9 6c bd d8 9b 6a 3a b4 ab 38 be ac e1 4f bd
       -0.057839725 0.0008949614 -0.1803425 -0.050752327
000090 39 ac 85 be 13 2b 1e 3e 83 9b 36 be f2 da 3b 3d
       -0.26107958 0.15446119 -0.1783276 0.0458631
0000a0 15 ec 39 be 3c e0 50 be d5 b7 61 3c b8 d7 23 be
       -0.18156464 -0.20398039 0.013776739 -0.16000259
0000b0 3f 4a d3 bd e3 20 45 be fe dd fb bd 82 a5 ed bd
       -0.10316896 -0.19250827 -0.12298201 -0.11603834
0000c0 46 da 5e 3e eb 11 25 3e cc 31 28 be 3b cd cc 3d
       0.21762952 0.16120116 -0.16425246 0.10000082
0000d0 14 0b 4b bd 12 df 09 be 8d ea 0c 3e 9a f8 05 bc
       -0.04957111 -0.13464001 0.13761349 -0.008176947
0000e0 f2 06 13 3e 5d a3 c3 bc 5f a4 51 be 85 8d 74 3d
       0.14358118 -0.023881609 -0.20472859 0.059705276
0000f0 7c 87 ee 3c bb 56 32 3d 6b ca 5f 3c 35 6e 70 be
       0.029117338 0.043539744 0.0136591 -0.2347954
000100 56 36 bf 3c 46 34 26 bd f6 de 77 be ed 6d 48 3e
       0.02334134 -0.040577196 -0.24206147 0.19573183
000110 54 16 8d be 6e 31 1f be 08 d7 3e 3c 29 18 61 be
       -0.27556098 -0.155462 0.011647947 -0.21981873
000120 ca c9 26 be f3 7f 60 bd a5 31 ad bd 90 af 06 be
       -0.16287914 -0.054809522 -0.084567346 -0.1315291
000130 4c 28 26 3d 90 cc 4b 3e 2e ca c0 bc 68 ae d2 3b
       0.040565774 0.19902253 -0.023533907 0.0064294823
000140 7f d2 85 bc 2b 5d 0a be 00 bb a5 be 58 f3 6a be
       -0.016335724 -0.13512103 -0.32369232 -0.22944391
000150 50 46 80 3d 3e 61 e7 bd 74 c7 e9 bd 6b 98 01 3e
       0.06263411 -0.11297844 -0.11414996 0.12655799
000160 3b 5c 1b be d2 fc 23 3e ff b6 fc bc cf 31 81 3d
       -0.15171902 0.16014412 -0.030848978 0.06308328
000170 d4 06 9f 3c ac 6e ff 3d 01 19 51 be 84 1b 8f be
       0.019412436 0.12472281 -0.20419694 -0.2795068
000180 a0 60 18 3e 6c e3 70 be 75 ab 5c 3e b5 45 dd 3d
       0.1488061 -0.23524255 0.2154978 0.10804311
000190 36 58 68 3d ff 8d 7a bb 2d 72 cb 3a 78 a9 0e be
       0.05672475 -0.003823161 0.0015521698 -0.13931835
0001a0 89 e8 ed bd b2 48 1c 3e 81 48 e6 bc 32 49 84 bc
       -0.11616618 0.15262106 -0.028110744 -0.016148183
0001b0 d2 49 4a 3d 5f 99 27 bd 03 d0 01 bd 08 6e 2c be
       0.049386807 -0.04091775 -0.031692516 -0.16838849
0001c0 cf 5d e7 bc ac c7 47 be 98 5f 9f bd fb 20 5e 3d
       -0.028242974 -0.19509763 -0.07781905 0.05423067
0001d0 08 f8 1b 3e 5a 99 48 be 52 b2 31 be 87 a0 34 3e
       0.15231335 -0.19589749 -0.1735318 0.17639361
0001e0 3d 08 05 be 6e 09 8b bd af cf 25 3e 12 83 05 3e
       -0.12991424 -0.06788908 0.16192506 0.1303828
0001f0 6e d5 b2 3d 86 c2 78 bd b7 fc 30 3d 1c ae 48 ba
       0.08732115 -0.060732387 0.043209758 -0.0007655339
000200 87 45 d4 3d e7 d1 76 be 1d c5 28 be e1 be a6 3d
       0.10364824 -0.24103509 -0.16481443 0.08141876
000210 cb 19 78 be f8 f3 bd 3d 6a f3 35 3e 60 d0 fa 3d
       -0.24228589 0.09275049 0.17768636 0.122467756
000220 b7 77 13 3c 3e 6e 06 bc e7 f0 ca 3d 02 0e 07 3d
       0.00900071 -0.008204995 0.0990923 0.032972343
000230 0f 1d a5 ba b0 9e 31 be af 0e e5 3d 44 4c f5 bd
       -0.0012597161 -0.1734569 0.11184441 -0.11977437
000240 93 ee c4 3d 61 94 45 be 9b fb 2a bd b9 38 95 bd
       0.09615817 -0.19294883 -0.041743856 -0.072862096
000250 a1 2e de 3b 4c 81 7b 3d 64 c1 b6 bc b0 fa 29 3e
       0.006780461 0.061402604 -0.022309013 0.16599536
000260 d5 e4 da 3d 93 7b 4d be a5 c5 f3 3d dd 77 05 bc
       0.106881775 -0.20066671 0.11902932 -0.008146253
000270 83 3c c8 3d eb ea 61 3d d3 8c 3f bd 93 27 44 3d
       0.09777167 0.055155676 -0.04676516 0.047889303
000280 fe 29 32 be 2e 07 cb 3c 3a 23 a5 bd f4 e8 c2 bc
       -0.17398831 0.024783697 -0.080633596 -0.023792721
000290 00 b6 b6 bd f9 f8 cb 3d a7 ca 1f bd 00 b3 1e 3d
       -0.089214325 0.09959597 -0.039011624 0.038744926
0002a0 9a 2b 31 3d 86 4a 14 3e ad d3 ff 3c b4 4a 88 be
       0.043254472 0.14481553 0.031228865 -0.26619494
0002b0 c6 1a 1d be fc 88 4e be 3c 33 ac be 3e 22 29 be
       -0.15342245 -0.20169443 -0.3363284 -0.16516969
0002c0 a2 39 01 be 28 e4 41 3e 7b 5e 1a be 07 cc 11 be
       -0.12619641 0.18934691 -0.15075104 -0.14237987
0002d0 b2 ad c1 bd cb 7d f4 3d 13 61 a6 3d 56 dc 66 3d
       -0.09456958 0.119380556 0.08123984 0.056362472
0002e0 de 77 30 3e 18 98 71 be 41 13 3f be 7a 99 f5 bd
       0.17233226 -0.23593175 -0.18659689 -0.11992164
0002f0 64 90 37 3d 49 71 4a 3e 4d 84 90 3d e9 5d 2d bc
       0.044815436 0.19769777 0.07056484 -0.010581472
000300 63 3c 8c bd 69 0f 87 be 32 4f 4d 3e 90 f2 74 be
       -0.06847455 -0.26378945 0.20049742 -0.23920655
000310 50 87 3e be a5 19 28 3e 77 61 ee 3d 80 e0 df 3d
       -0.18606305 0.16416033 0.11639684 0.10931492
000320 eb 22 a7 3c 9d c9 0a bd 93 1d 6e ba 3b 00 cf bd
       0.020402392 -0.03388368 -0.00090833864 -0.10107466
000330 bc 13 59 3e db c3 3b 3e e0 13 51 bd 48 02 09 3e
       0.21198934 0.18336432 -0.051044345 0.13379776
000340 5e c0 f6 bd e0 8c 0e be a6 6b 98 3d 1b 6e 8c bc
       -0.1204841 -0.13920927 0.07442407 -0.017142346
000350 41 33 2d 3e ed c6 20 3d 9d 78 b0 bd d5 87 fe bd
       0.16914083 0.03925221 -0.08616755 -0.12428252
000360 41 c0 3a 3e ba 31 ba bd 3b f4 4a 3d 0e 60 40 3c
       0.18237402 -0.09091516 0.049549323 0.011741651
000370 a9 98 37 be 1e 6d c3 3c d8 57 f1 3d d8 fc 55 bd
       -0.17929329 0.023855742 0.11784333 -0.052243084
000380 7e 55 80 3c 42 d9 0b be ca 8b 54 bb 85 44 29 bd
       0.015665766 -0.13657096 -0.0032431954 -0.04132511
000390 d3 1f 84 bd 4e e8 26 be 82 b2 47 3e df ed c6 bc
       -0.064513825 -0.16299555 0.19501689 -0.024283348
0003a0 fd ae dd bd cb 75 51 be 9d ac ae 3d ba f6 3d 3d
       -0.10824392 -0.2045509 0.08529017 0.046377875
0003b0 3a 8c c1 bd 4c d4 04 3d 4f c4 c1 bb ef a4 06 3e
       -0.09450574 0.032429025 -0.0059132944 0.13148855
0003c0 58 98 f1 bd c0 19 65 3d ea 42 5b 3d 34 c7 42 bd
       -0.117966354 0.05593276 0.05353061 -0.047553256
0003d0 2d e9 b0 be c0 da ee 3c 7f fb 73 bd a4 67 42 be
       -0.345529 0.029157043 -0.059566017 -0.18984848
0003e0 ca 5a a5 bd 1f 22 e7 bd f6 6b 0e be ae d1 ad be
       -0.08073957 -0.11285805 -0.13908371 -0.33949035
0003f0 dd 2f 52 3e d9 7c 2f 3e 93 62 32 be f8 a8 f4 3d
       0.20526071 0.1713747 -0.17420416 0.11946291

fc2.weight f4 [256, 258]
000000 f9 7c 90 bb dd c3 38 bc 9f 54 1b 3d 62 92 d5 ba
       -0.004409429 -0.011277166 0.037922498 -0.0016294236
000010 82 e3 56 3d 59 91 4f bd 32 9b de 3c 6a 57 24 bc
       0.052463062 -0.050675724 0.027173612 -0.010030607
000020 c9 9d e6 3c e2 96 53 bb 34 b9 e7 3c f1 c7 12 bd
       0.02815141 -0.0032285978 0.028286554 -0.03583521
000030 de a8 aa bc e1 99 be bc 6b 5b 0c 3c d2 28 c4 3b
       -0.020832475 -0.023266735 0.008566718 0.0059863115
000040 e0 00 ea bc 49 d2 fc bb 26 c9 37 bd c6 61 0c 3d
       -0.02856487 -0.0077154976 -0.044869564 0.03427293
000050 af a8 8a 3d ff 1d b6 3b 07 86 61 3a 9e e0 72 3d
       0.06770455 0.005557775 0.00086030405 0.059296243
000060 ab 41 a9 3d 22 7e a4 3b ac 01 72 bd c6 1d 4a bd
       0.08264478 0.005019919 -0.059083626 -0.0493448
000070 b5 de 1b 3e 9d cf 80 bc 6a 17 c0 3c 5a 3b ce bd
       0.15221675 -0.015723998 0.023448665 -0.10069914
000080 00 98 f0 3c 29 02 d5 3c 45 1a 64 3d da 4f 8d bd
       0.029369354 0.026002007 0.055689115 -0.06899996
000090 b8 18 ca bb aa 99 5c 3d 2d 95 19 3d 30 34 a9 bd
       -0.0061674975 0.053857483 0.03749578 -0.08261907
0000a0 20 9b 73 3c 3d 8c 16 bd 9a bc a6 bc d7 87 36 bb
       0.014868528 -0.036754835 -0.020353604 -0.0027851963
0000b0 1d 5a 5b 3a 82 17 f0 bb d9 db b5 3c 9c 73 dc 3c
       0.0008367615 -0.007327021 0.022199558 0.026910596
0000c0 ca e1 b5 3b 2a 5e 10 3d d2 66 69 3d 87 79 d1 3d
       0.005550598 0.03524605 0.056982823 0.102282576
0000d0 29 64 dc 3c e7 51 45 3d 4b 86 ec 3c 10 0b c4 bb
       0.026903229 0.04817381 0.02887263 -0.005982764
0000e0 5a 9f 81 3d dc 42 79 bd af 11 46 bd ea 83 26 bd
       0.06329222 -0.060854778 -0.04835671 -0.040653147
0000f0 89 c4 b2 3c 0b 86 25 3d 09 4b 5f bc 7e cd d9 bd
       0.02182223 0.040411036 -0.01362873 -0.10634898
000100 34 ec 9e bd e7 f0 4e bd a7 e4 94 bc f0 44 1b 3d
       -0.07759896 -0.05052271 -0.018175436 0.03790754
000110 ad ed 1c bd 91 77 00 3d 53 ac a1 3c cd b4 0f bd
       -0.038312603 0.031364027 0.01973549 -0.035084534
000120 a6 eb 53 3d 32 26 2a 3d cc 49 22 3d b7 da 8a 3d
       0.051738404 0.041540332 0.03962116 0.06779998
000130 fa d4 88 bc 5f ce 10 bd f7 25 4f 3c 2d c7 e3 3d
       -0.016703118 -0.03535306 0.012643329 0.11121974
000140 39 31 e0 bc c8 09 24 be 1f a1 d9 bd 0d 87 e1 bc
       -0.027367221 -0.16019356 -0.106264345 -0.027530218
000150 d4 9d 79 bd 25 e8 99 3d 8e ee 80 3d 28 23 0f 3d
       -0.060941532 0.07514981 0.06295501 0.034945637
000160 ea bc 81 bd 87 20 40 3d a8 4c e4 bb f2 49 12 3d
       -0.063348606 0.04690602 -0.006967146 0.03571505
000170 47 bc a1 3c af 0b e9 3c 8e 8a 83 3c a4 4b 9c 3a
       0.019743098 0.028447954 0.016057279 0.0011924398
000180 87 f1 0a 3d 57 7e 93 bd fd 4d f7 3d 19 d6 9a 3c
       0.033921745 -0.07201832 0.12075422 0.018900918
000190 ca 8e 85 3c 8e d2 3d 3d 3f 93 82 bd d1 b4 91 bc
       0.016303439 0.04634338 -0.06375741 -0.017786415
0001a0 10 ce 20 3b 25 4b e7 bc b9 43 47 3d 14 e5 10 bd
       0.0024536885 -0.028234074 0.04864857 -0.035374716
0001b0 33 b1 54 3c 0b e0 b1 3c ff c5 8f 3c ed b8 9f bc
       0.012981701 0.021713277 0.017550467 -0.01949736
0001c0 a2 65 36 3d 53 7e 34 3c a6 f7 8f 3c df 3d 29 3d
       0.04453052 0.011016446 0.017574143 0.04131877
0001d0 94 57 36 3d bb 3f 1f bc ec 2a 5a ba 68 be e7 3b
       0.044517115 -0.009719784 -0.0008322436 0.0070722587
0001e0 af 38 bc 3c e1 4a 08 3d 24 2a c6 bc 34 a8 81 bd
       0.022976248 0.033274535 -0.024190016 -0.0633091
0001f0 8d 20 15 3d b1 d2 05 3d c7 17 5b 39 5e e8 e4 bc
       0.036407996 0.032671634 0.00020894325 -0.027942833
000200 27 86 b1 3d 4d ec 74 3d 7b bb d3 bc 01 54 07 3d
       0.08668166 0.059795666 -0.025846234 0.033039097
000210 a2 6a 93 3b 23 c4 ef bc 5a fa 42 bc b3 48 bc bb
       0.0044987956 -0.02926833 -0.011900509 -0.005745971
000220 20 f9 f1 3c e3 33 0f bc d7 2d a4 bc d8 fc 4c 3d
       0.029537737 -0.008740398 -0.02004139 0.050045818
000230 42 44 0b 3b 39 60 e6 3b 79 9b 3a 3d b9 39 eb 3c
       0.0021250402 0.0070305136 0.045558427 0.028714048
000240 2f 92 31 3b 51 7a 93 bd 97 db 75 3d f4 a0 9c 3a
       0.002709519 -0.072010644 0.06002387 0.0011949823
000250 1e b7 22 3a dc 03 1a 3e 7b 74 d8 bc 3f c2 ab bb
       0.0006207096 0.15040535 -0.02642273 -0.005241662
000260 01 60 c6 bc a4 6d f2 b9 cc d8 5f 3d 8b 57 58 bd
       -0.0242157 -0.00046239526 0.054650113 -0.052817862
000270 29 97 5d 3d 39 c3 76 3c 1b 5c 98 bd 42 12 c2 bc
       0.054099236 0.015061193 -0.07439443 -0.023690347
000280 42 1d 3e bc e1 51 f4 3c 09 49 f5 3c ac d1 20 bc
       -0.011603655 0.0298242 0.029942052 -0.009815615
000290 00 2f 34 3d f0 96 d8 bc ef f7 83 3a d3 3a b8 bd
       0.043990135 -0.02643916 0.0010068397 -0.08995595
0002a0 7e 4c 8c 3d 1e 58 db bc 65 e7 09 bd fb c5 d7 3c
       0.06850527 -0.026775416 -0.03366794 0.026339522
0002b0 0d 9b 1c 3d d7 fb 78 bc ca 25 a7 bc 19 5e 3d bd
       0.038233805 -0.015196762 -0.020403761 -0.046232317
0002c0 06 ea 09 bb e8 9f bd bc 19 85 96 3c 29 18 50 bd
       -0.002104403 -0.023147538 0.018374013 -0.05080429
0002d0 97 b5 66 bd 70 8c 62 bd 3d 59 dc bc 6a 26 91 3d
       -0.05632552 -0.055309713 -0.02689802 0.07087405
0002e0 cb 46 ce bc 22 4c 8c bd 6a 9e 92 bc 85 ea 28 be
       -0.025180241 -0.06850459 -0.017897803 -0.16495712
0002f0 92 79 54 3c d9 8d 48 bd 60 ea 8a bd 3a 5a 17 3d
       0.012968438 -0.0489634 -0.06782985 0.03695128
000300 c4 fb 15 3d 23 b3 b4 3c ea fc 42 3d 53 f8 8c bc
       0.036617056 0.022058075 0.04760448 -0.017208254
000310 57 0f 65 3c 1c d7 dc 3c cf c3 19 3d 52 46 12 3d
       0.013980708 0.02695804 0.037540253 0.035711594
000320 de e8 6b 3d 38 bf a8 bc c1 4c 43 3d 85 75 f1 bc
       0.057595126 -0.020598993 0.04768062 -0.029474983
000330 52 f6 0b 3d 15 1c 07 3d f3 26 aa bd 5a 19 39 bd
       0.034170456 0.032985765 -0.0830821 -0.045190193
000340 ca 42 1a 3c e3 b3 7d 3d cf 37 dc bc 63 e9 32 bb
       0.009415338 0.06193913 -0.02688208 -0.0027299754
000350 90 c0 08 3d 1d 70 a6 ba f5 19 57 3d 14 1f 41 bc
       0.033386767 -0.0012698207 0.05251499 -0.011787195
000360 3b 3a dd 3b 8a 86 8f 3d fa 62 ec bc 77 8d 3c bd
       0.0067513264 0.07008083 -0.02885579 -0.04603335
000370 e9 69 ce bb 48 3e 6a bd 9f 2a bf 3c db 89 67 3c
       -0.0062992466 -0.057188302 0.023335753 0.014131988
000380 04 5e 70 3d 5a 28 8b 3c d0 15 26 3b cd 9d 02 bd
       0.05868341 0.016987015 0.002534259 -0.03188877
000390 77 aa b5 3c d5 81 b0 3c ee 1d 14 3c 24 7c 37 bd
       0.02217601 0.021546284 0.009040339 -0.044796124
0003a0 e9 80 75 3d 86 c8 f3 3c 5d d4 02 bd cb be 93 3c
       0.05993739 0.029758703 -0.031940807 0.018035313
0003b0 0d 0b 99 bc 20 84 c0 bd 1e dd be bd df 70 0e bc
       -0.018682027 -0.09400201 -0.093195185 -0.008693903
0003c0 b1 12 2e 3c ae 78 c9 39 cb fd 04 3d 49 94 67 bd
       0.010624574 0.0003842762 0.0324686 -0.0565379
0003d0 6b 3b ff 3b 28 f5 07 bc f1 4e 62 bd 08 b4 5a 3d
       0.0077890656 -0.008298196 -0.055251066 0.053394347
0003e0 9b c1 85 39 72 68 5a 3c 50 e9 1f bd 50 45 95 3c
       0.00025511984 0.013330566 -0.039040864 0.018221527
0003f0 d2 9d 84 bc e8 32 8e bd 4a 36 a6 3d 51 2f 80 3d
       -0.016188536 -0.06943303 0.081158236 0.06259025

fc2.bias f4 [256]
000000 d0 8e ef bd bb 95 e6 bd 35 b0 06 be a3 a4 20 be
       -0.11697161 -0.112590276 -0.13153155 -0.15687804
000010 02 bf 96 bd a0 3e 1f be e0 69 10 be b7 43 e7 bd
       -0.073606506 -0.15551233 -0.14102888 -0.112922125
000020 e2 71 a3 bd 19 0c 95 3c 3d f0 33 bd f2 30 f2 bd
       -0.07980706 0.018194245 -0.04393028 -0.11825742
000030 6f 11 90 bd 57 04 88 bd 65 ce a3 bd e8 d8 aa bd
       -0.07034575 -0.06641453 -0.07998351 -0.08342153
000040 60 cd f0 bd cd 9d ce bd cf fe a5 bd 45 b2 cd bd
       -0.11757922 -0.10088692 -0.081052415 -0.10043768
000050 3f 71 09 bd ef 70 5e bd d4 91 ba 3b 1e 17 b6 bd
       -0.033555266 -0.05430692 0.0056936536 -0.08891128
000060 31 69 af bd 53 29 f8 bd 62 ff f3 bd 4a 08 92 bd
       -0.085649855 -0.12117257 -0.11913945 -0.07130487
000070 00 08 e8 bd 05 dd c5 3d 35 34 ab bd 4e 31 87 bd
       -0.11329651 0.09661297 -0.08359567 -0.06601201
000080 73 26 e9 bd c9 08 18 be 4a 0d af 3c df 48 86 3d
       -0.11384287 -0.14847101 0.021368641 0.06556868
000090 ae fe 83 bd e6 21 b5 3b 0e 82 13 be 65 6b c5 bd
       -0.06445061 0.0055277226 -0.1440508 -0.096396245
0000a0 a9 43 2f be ea 64 94 bd 5a 09 b3 bd 73 19 1a 3e
       -0.17115654 -0.0724581 -0.08742018 0.1504877
0000b0 53 bf bc bd 43 ca d9 bd 99 6d b7 bd d6 56 a6 bd
       -0.0921618 -0.106342815 -0.08956451 -0.081220314
0000c0 22 36 b8 bd ff eb ae bd fd dc 85 3c 43 5d 74 bd
       -0.089947 -0.085411064 0.016340727 -0.059659254
0000d0 63 aa 94 bd 64 b8 af bc 78 fd 0c be 6e 90 1c be
       -0.07259061 -0.021450229 -0.13768566 -0.1528947
0000e0 7e 26 d7 bd 3f 2a 29 be d0 1f b0 bd 9d 64 b0 bd
       -0.10505389 -0.16520022 -0.08599818 -0.086129405
0000f0 c9 69 73 bd 1b aa 4e bc 13 4a b9 bc 72 15 6f 3c
       -0.059427056 -0.0126137985 -0.02261833 0.014592515
000100 9a 75 0d be 45 61 01 be 3e 22 23 bd 81 6c 9e bd
       -0.13814393 -0.12634762 -0.039827578 -0.07735539
000110 8e d7 bb 3d b0 1c 36 be e7 46 ef bd f1 76 e0 bd
       0.09171973 -0.17784381 -0.116834454 -0.10960186
000120 f6 28 c8 bd ea fb 1e be 53 76 0d bd 6e b6 78 bd
       -0.09773438 -0.15525785 -0.03453667 -0.060720854
000130 3d cd 20 be a6 ac aa bd bd ff f2 bd 60 08 ec 3b
       -0.15703292 -0.08333711 -0.118651845 0.007203147
000140 67 01 b4 bd a0 ef ca bd bd 2e 2e bd 07 1b ba bd
       -0.0878933 -0.09908986 -0.04252504 -0.09087186
000150 07 a3 09 be ff 01 cd bd 4b fb 10 bd 83 13 e4 bd
       -0.13441096 -0.10010146 -0.0353959 -0.11136534
000160 24 37 cd bd 4a 45 ee bd 7a 85 82 bd b3 6e 8f bd
       -0.10020283 -0.116343096 -0.06373115 -0.07003536
000170 25 22 ff bc e3 73 07 be 78 07 9c bd a8 8f a0 bd
       -0.031144211 -0.13227801 -0.07618612 -0.078399
000180 5d 97 f8 bd 04 46 b7 bd 2a dd b1 bd 18 cd f7 bd
       -0.12138245 -0.08948901 -0.08684762 -0.120996654
000190 98 0c 8c bd f5 e5 09 bd 69 87 bb bd 6a 80 85 bd
       -0.068383396 -0.03366657 -0.09156687 -0.06518634
0001a0 fb 5c de bd c0 d0 10 be d0 75 78 bd cc 1c ac bd
       -0.10857578 -0.14142132 -0.06065923 -0.0840393
0001b0 b7 76 25 3c d4 0b a1 3c b7 5d 0c be 17 60 53 3d
       0.010099105 0.01965896 -0.13707624 0.05160531
0001c0 ba b7 e7 bc ef 2e a9 bd 78 59 9c 3c da 97 e7 bd
       -0.02828585 -0.08260905 0.01908563 -0.1130826
0001d0 43 ba e1 3c 53 8e 9d bd 29 c0 b0 bd ee e1 26 bd
       0.027554637 -0.07693162 -0.08630402 -0.040742807
0001e0 d4 9a b2 bd 79 95 fa bd 1e 91 37 bd 32 cf b5 3d
       -0.08720937 -0.12235541 -0.04481613 0.0887741
0001f0 4e 32 d7 bd db 8f 9b bd c9 1a fd bd 18 fc e7 bd
       -0.10507642 -0.07595798 -0.123586245 -0.1132738
000200 a5 78 7c bd 93 1c a7 bd 4c 78 b1 bd bb 14 03 be
       -0.061638493 -0.08159747 -0.08665523 -0.12800877
000210 08 d9 9a bc e5 e4 f8 bd 0b 69 bf bd ed 07 96 bd
       -0.018902317 -0.12153033 -0.09346207 -0.073257305
000220 c9 ba 8e 3c 23 9b c1 bc 4f 39 89 bd e2 77 f8 3b
       0.01742305 -0.023633545 -0.06700384 0.0075826505
000230 2d 83 cc bd cb 7e a5 b9 08 40 b4 bd b3 ad 01 be
       -0.09985957 -0.0003156572 -0.088012755 -0.12663917
000240 00 98 87 bd 3d 18 8a bd 44 1e 67 bd 20 be f5 bd
       -0.066207886 -0.06742904 -0.056425348 -0.11999154
000250 89 3d ee bd e4 e3 02 be 39 68 cb bd c6 61 eb 3c
       -0.11632831 -0.12782246 -0.09931988 0.028733145
000260 b7 10 03 be e3 a1 87 bd a5 40 9b bd 3a f4 c1 bd
       -0.12799345 -0.06622674 -0.07580689 -0.09470411
000270 d8 75 22 be c0 95 a5 bd e6 54 08 be b5 fd 15 bd
       -0.15865266 -0.08085203 -0.13313636 -0.036618907
000280 de f5 cc bd 33 b5 04 bd a8 b1 a3 bc 4e c7 a6 3c
       -0.10007833 -0.032399368 -0.019982174 0.020358708
000290 6c 59 7c bd 02 04 89 bc ff bb 99 bd a3 f6 64 bd
       -0.061608717 -0.016725544 -0.075065605 -0.055899274
0002a0 66 88 28 bd 6e 97 f0 bd 4e 7d 9d bd 9f b3 0d be
       -0.041145705 -0.11747633 -0.076899156 -0.13838051
0002b0 c2 5d f4 bd 41 0b c5 bd 47 af 9e 3d 03 f9 4f bc
       -0.119319454 -0.09621287 0.07748275 -0.012693646
0002c0 af b7 14 be 0b bb 8e bd 5c 65 d7 bd 44 07 19 3d
       -0.14523195 -0.06969269 -0.1051738 0.037360445
0002d0 8d db 0c be ba e8 71 bd 6e 1e a0 bd 23 05 8c bd
       -0.13755627 -0.059059836 -0.07818304 -0.06836917
0002e0 d2 3f a5 3b be aa 26 be 60 63 06 bd 15 c1 d6 bd
       0.0050430084 -0.1627607 -0.032809615 -0.10486046
0002f0 d1 67 ae bd cc fb 58 bd 96 b8 c9 bd 67 01 26 be
       -0.08515895 -0.052974507 -0.0984966 -0.16211472
000300 80 05 a1 bd fa ce d6 bd da ab f8 bd 2f 2a fd bc
       -0.07862377 -0.104886964 -0.12142153 -0.030903904
000310 ad 17 3a be 97 df 91 bd 33 82 b4 bd 35 b4 cf 3b
       -0.18173094 -0.071227245 -0.08813896 0.006338621
000320 39 f8 99 bc 92 d9 00 be 89 69 a8 bd 56 3d 13 bd
       -0.01879512 -0.12582996 -0.08223254 -0.035947166
000330 e2 e8 b4 3d b0 81 67 bb 21 97 80 bd e2 ce e9 bd
       0.08833481 -0.0035325103 -0.062788256 -0.11416413
000340 e2 b8 11 be 79 b5 3f be e5 5d 9a 3d b7 92 07 be
       -0.14230683 -0.1872157 0.0753744 -0.13239561
000350 80 a4 e3 bd 4b 9b 1d be 62 58 4a be 71 ef ab bd
       -0.1111536 -0.15391271 -0.19760278 -0.08395279
000360 99 db 13 be aa c9 8f bd 54 4a 08 be dd a3 d6 bd
       -0.14439239 -0.07020886 -0.13309604 -0.10480473
000370 d3 5d 0f be ab 40 07 be e1 ac 79 bd c0 83 14 bd
       -0.14000635 -0.13208263 -0.060955886 -0.03625846
000380 8c 35 da bd 82 52 5b bd 26 be a8 bd 30 8a 0a be
       -0.106547445 -0.053545482 -0.08239393 -0.13529277
000390 22 97 d9 bd 28 db e0 bd 42 69 03 be 80 44 46 3d
       -0.106245294 -0.10979301 -0.12833121 0.04840517
0003a0 b7 a6 0f be ea 5d e3 bd 5d ea db bd c3 68 71 bd
       -0.1402844 -0.11101897 -0.107380606 -0.0589378
0003b0 a1 dc c6 bd f7 e3 7e bd e2 ce 0e be 2c eb d6 bd
       -0.097100504 -0.062229123 -0.13946107 -0.10494074
0003c0 2a 69 d9 bd d4 41 22 bd 1b 8d f8 bd a7 9e b1 bd
       -0.106157616 -0.03961356 -0.12136289 -0.08672839
0003d0 d2 5b bf bd 43 30 f7 bd 97 3a 2f 3d b1 d0 28 bd
       -0.09343685 -0.12069752 0.042780485 -0.04121465
0003e0 16 89 8c bd 5b 76 17 be 4f 11 b3 bc c2 4f 8a bd
       -0.068620846 -0.14791243 -0.02185884 -0.06753494
0003f0 93 53 51 bd a9 ce aa bd ad 23 15 be 26 3c e4 bd
       -0.051105093 -0.083401985 -0.1456439 -0.11144285

fc3.weight f4 [1, 256]
000000 9b 17 23 3a 05 cd 37 3c 93 8e c6 bc 10 34 07 3c
       0.0006221474 0.011218314 -0.024237907 0.008252159
000010 91 b8 b8 bc 09 4a 4b bc d6 08 71 bd f4 30 00 3a
       -0.022548946 -0.012407788 -0.058846317 0.0004890107
000020 40 59 88 3c 61 c4 d5 3b 23 28 4d 3c fa e6 29 bd
       0.01664412 0.0065236543 0.012521776 -0.041480042
000030 33 8c 5a 3d 30 96 31 3c ef 00 3a 3d 4a 6d d1 bc
       0.05335636 0.01083903 0.045411047 -0.025564808
000040 d0 14 56 3a 78 b6 47 3c dd e5 02 3c 13 84 88 bc
       0.00081665535 0.0121895 0.007989374 -0.01666454
000050 db df 0f 3c 93 5b 0b 3c 96 5f 90 3c 5b bd 74 bd
       0.008781399 0.00850572 0.017623704 -0.059750896
000060 ae 44 f9 bc 26 bf 90 3c 39 e8 68 3d fb 72 61 3b
       -0.030428257 0.017669272 0.05686209 0.003440081
000070 1d 7f 54 bc 52 9e 78 3c 97 ff 2a 3d 7c dc 61 bd
       -0.012969759 0.015174465 0.041747656 -0.05514191
000080 66 c3 02 bb 8f d1 f8 39 67 db 9a 3c f5 79 c2 3b
       -0.0019952892 0.0004745838 0.018903447 0.0059349486
000090 59 71 d3 bc 8f 1d ba 3c ff 8c 83 3c bb 80 94 bd
       -0.025810884 0.022719173 0.016058443 -0.07251116
0000a0 ee ce a1 ba a8 12 cc 3c 5d 7e 0d bc 66 e6 ed 3c
       -0.0012344995 0.02491124 -0.008636084 0.029040527
0000b0 47 4d f0 bc 2e 82 a9 3c c0 84 4e bc 4a 18 60 3c
       -0.029333724 0.020691957 -0.012604892 0.013677666
0000c0 1e a0 fd bc 05 c9 27 bd c9 26 2e 3c 06 9c ae bc
       -0.030960139 -0.04096319 0.010629364 -0.021314632
0000d0 59 e9 98 3c 1f 20 92 3a 10 a5 4a 3c fd 5d 1a bd
       0.018665956 0.0011148489 0.0123684555 -0.03768729
0000e0 e4 42 09 3e d0 06 12 3d 4b 9f 1f bd 1e 8e f9 ba
       0.13404423 0.03565103 -0.038970273 -0.0019039547
0000f0 c6 41 d8 3c d7 d0 0e 3d 5a ab bb bc 9d d8 78 3b
       0.02639855 0.034867134 -0.022908855 0.0037970908
000100 dd 6d 62 bd b5 52 1e 3d 69 09 da 3c 22 26 80 3c
       -0.055280555 0.038653094 0.026615815 0.015643183
000110 ff 2d ac 3c cb cc 2f 3d 92 c6 90 bc ad 53 b2 bc
       0.021018026 0.042919915 -0.01767281 -0.021768415
000120 30 79 4b bd 5f 88 bb bc ac 06 29 3c 49 37 ad 3b
       -0.04967612 -0.022892175 0.010316532 0.0052861315
000130 80 76 96 3a 4d 2d 00 bc 31 c1 c1 bd cd a9 97 3c
       0.0011479408 -0.007823301 -0.094606765 0.018513585
000140 09 0d 98 3d 61 6a 9f 3c 86 f1 74 3d 9a 44 76 bc
       0.07424361 0.019459905 0.059800647 -0.015031004
000150 43 8e b0 bc 3a 25 9a bc 7c 10 2c 3c 7a 2f 9c bb
       -0.02155221 -0.01881658 0.010501977 -0.004766402
000160 fe 0a 0d bc b4 99 8c bc 4b 28 d4 3a af 63 81 3b
       -0.008608578 -0.017163135 0.0016186325 0.003948651
000170 1b 25 91 3b ca d1 16 bc c4 dc 7c 3c e1 d9 e1 3b
       0.004429472 -0.009205291 0.015433494 0.0068924283
000180 98 eb 2c bc 17 6a 91 3b 8b 8b b5 bc bc 65 d7 3c
       -0.010554217 0.0044376957 -0.022161266 0.026293628
000190 18 72 95 bc f4 01 84 bd 82 c5 89 bc 3c 21 0c 3c
       -0.01824288 -0.06445685 -0.016817812 0.008552846
0001a0 65 c7 d3 3c e2 df 80 3a 27 2e 62 bc 39 ae 69 bc
       0.025851915 0.0009832347 -0.013804949 -0.014262729
0001b0 79 84 ed 3b 3c a0 20 3c 8d 85 50 3b 62 ff b6 3c
       0.007248458 0.009803828 0.0031817884 0.022338573
0001c0 a3 90 ee bc b6 3d 8a 3d 70 62 cc 3b a7 7a 0e bb
       -0.029121703 0.06750052 0.0062373206 -0.0021740587
0001d0 a6 03 d1 3b 3f f3 0b 3d 75 21 de bb 5b 78 06 bd
       0.0063786088 0.034167524 -0.0067788907 -0.032829624
0001e0 ca e3 02 bc 69 88 de bc 6a 9b ba 3b a9 98 a6 3c
       -0.007988879 -0.027164655 0.0056947963 0.020336466
0001f0 fb d6 26 bc 0e 4e 03 bd 3e 53 25 bc 01 f2 4c bd
       -0.010183091 -0.03205686 -0.010090647 -0.05003548
000200 05 61 18 3a 9b 3d 34 bd 47 00 1b bd 4f 18 0e 3a
       0.0005812797 -0.044004064 -0.03784206 0.00054204924
000210 04 3a 00 3b 3f 79 c3 bc 57 dd a5 3d cc 5c a0 3c
       0.001956583 -0.023861526 0.08098858 0.019575499
000220 8b e2 f8 3b 63 2f ba bb 92 1c 43 3c 7f 3c 13 3b
       0.0075953654 -0.0056819185 0.011908667 0.0022466478
000230 3b 71 48 ba 40 80 5d 3c b4 e8 3f bb 3c c4 3b bc
       -0.0007646267 0.013519347 -0.002928299 -0.01146036
000240 ef 7b 28 bd 0f 4b 10 bd 5b 49 54 3c f7 e0 09 bd
       -0.041133817 -0.03522783 0.012956942 -0.03366181
000250 a3 ff 12 bd ab 48 e3 bc 3b 6d 9a bc 0c 25 0a 3c
       -0.035888325 -0.027744612 -0.018850913 0.008431684
000260 e7 ff 25 ba f9 ff 1b 3b ea 9d a4 3b 97 aa 61 bd
       -0.0006332383 0.0023803695 0.0050237076 -0.055094328
000270 01 b3 65 3d 0d 56 dd 3b b3 c9 6f be eb 40 c1 3b
       0.056078915 0.006754643 -0.23416786 0.0058976314
000280 52 ce 87 bc 64 cd 0e 3c a0 e2 97 3c 36 eb 52 3c
       -0.016577873 0.008715961 0.01854068 0.0128734615
000290 83 d2 75 bc d4 fe e7 3b e4 da 0b 3c 0c 20 50 bd
       -0.015003803 0.0070799384 0.008536074 -0.050811812
0002a0 4a 2e e9 3c a6 93 72 bd 6a 1c 55 bb 52 78 d1 bc
       0.028464455 -0.05922284 -0.0032518157 -0.025570069
0002b0 51 ca 22 bc de b9 f1 3c ae 41 a0 3c 0d f5 46 3c
       -0.009935931 0.029507574 0.019562569 0.012143386
0002c0 b7 02 b5 bc 44 5b d3 3c c6 14 aa bc 77 9e ae 3c
       -0.022096021 0.025800355 -0.020761859 0.021315796
0002d0 8b f4 41 bd f7 99 a5 3b 39 e7 03 3d b5 33 8f bb
       -0.047352355 0.0050537544 0.032202933 -0.0043701776
0002e0 44 1f a4 3b 54 31 94 ba 35 80 6d 3c 5c ee 8e bc
       0.00500861 -0.0011306205 0.014495899 -0.017447643
0002f0 73 d6 6c bd 81 8e 29 3c f2 0a ad bc 85 23 33 3d
       -0.057821702 0.010348917 -0.021123383 0.043735046
000300 83 6c 3f bb 06 d3 35 bb 7b fc b2 bc df f4 eb bc
       -0.0029208965 -0.0027744188 -0.021848908 -0.028803287
000310 b3 f0 af 3c aa 56 83 3c dc 8b 3b 3d 8c d9 c6 3b
       0.021477079 0.016032536 0.045787677 0.006068414
000320 5f 94 20 3c 29 d1 87 b9 80 c3 61 bd 32 7a 61 3b
       0.009800999 -0.00025905043 -0.055118084 0.003440511
000330 a9 d3 1d 3c da e5 40 3c 37 e2 c9 3c 65 2a 0f ba
       0.009632983 0.011773551 0.024644 -0.00054613344
000340 01 a2 eb bd 83 7b 67 bc fe af 75 3c 41 7b 56 bc
       -0.11505509 -0.014128569 0.014995573 -0.013090909
000350 93 5a bb ba 45 65 b6 3c 94 e7 c5 3d ce e5 af bc
       -0.0014293961 0.022265086 0.09663311 -0.021471884
000360 15 7b 6c bd a4 cd 08 3c f9 af ef 3d 07 e2 00 bd
       -0.057734568 0.00834981 0.11703486 -0.031465556
000370 72 04 56 bb d7 87 a9 bc b4 fc 61 bc 6a ac ab 3c
       -0.0032656458 -0.020694656 -0.013793159 0.020956237
000380 d1 ce 3e 39 9f e7 bc 3c 70 d3 67 3c 5e 10 81 3c
       0.00018196857 0.023059664 0.014149532 0.015754875
000390 7d ba 47 3c 8f 00 2a bd 8a 2f cf bd 80 6b a0 3c
       0.012190458 -0.04150444 -0.10116489 0.01958251
0003a0 14 ab 24 bc 5c b6 95 bd 36 8a 29 3d 0e b0 6a bb
       -0.010050554 -0.07310173 0.041391574 -0.0035810503
0003b0 c0 2e ba bb fc 02 35 3b 3d 04 0b 3d 22 2c 8d bc
       -0.0056818426 0.0027620187 0.03393959 -0.017232958
0003c0 55 6b de bc 8e 61 4e bc 4f a0 42 3c 60 2e c5 3c
       -0.02715079 -0.012596501 0.011879041 0.024069965
0003d0 2f 70 08 3d 26 24 d5 3c 33 c0 05 39 76 d5 c6 3c
       0.03331011 0.026018213 0.00012755468 0.024271708
0003e0 45 14 9e bc 00 c0 a8 bd c0 19 32 3c 41 aa e3 39
       -0.019296775 -0.08239746 0.010870397 0.00043423663
0003f0 08 79 d5 bc c5 0e ba 3c a3 e2 b5 bc 42 ff c2 3c
       -0.026058689 0.02271212 -0.022202795 0.023803357

bn1.weight f4 [256]
000000 53 a9 69 3e c7 3f ea 3e 13 37 1f 3f 20 8d d4 3e
       0.22818498 0.45751783 0.6219341 0.4151392
000010 7e 77 c5 3e 11 69 b9 3e bc 54 c2 3e 05 07 b0 3e
       0.38567728 0.36212972 0.37955272 0.34380355
000020 34 03 83 3e b1 56 2c 3f d3 1c 46 3f c9 f4 d8 3e
       0.2558838 0.6731978 0.7738773 0.42374256
000030 ab 84 06 3e 1c 1b 36 3f 5a ac 98 3e 6d b4 82 3f
       0.13136546 0.71135116 0.29818994 1.0211312
000040 e3 55 cf 3e 36 92 8f 3e eb ec b3 3e d7 0f 4e 3e
       0.40495214 0.28041238 0.35141692 0.2012323
000050 92 ec 03 3e ff b6 58 3f 2a 13 ba 3e 2e 4c e3 3e
       0.12883213 0.8465423 0.36342746 0.44394058
000060 da bb d9 3d c0 61 3a 3f 71 5b dd 3e 18 fb 01 3f
       0.10631533 0.72805405 0.43233827 0.50773764
000070 cf f9 1a bd ff 55 04 3f 9d b4 84 3e df f9 1a 3e
       -0.037835892 0.5169372 0.25919047 0.15134381
000080 5c d9 c2 3e f4 dd c9 3e dd f4 2d 3f 38 2b 13 3f
       0.38056457 0.3942715 0.67951757 0.5748782
000090 9d cb 88 3d a9 3d 21 3f cf 5c 1d 3f e9 0d 00 3f
       0.06679461 0.6298471 0.6146974 0.50021225
0000a0 aa ac 80 3e f7 cb 72 3e 00 42 3d 3f f4 0a 48 3f
       0.25131732 0.23710619 0.73928833 0.78141713
0000b0 cd 55 4d 3f aa ff 04 3f 31 87 08 3e 9b e4 61 3f
       0.80209047 0.5195261 0.13332821 0.8823945
0000c0 f5 3f d8 3e e8 78 22 3e 0b c9 18 3f 9e 06 fa 3d
       0.42236295 0.15866435 0.5968177 0.122082934
0000d0 95 64 21 3f fc 0d cb 3e 5d ea 0a 3f 09 9d a2 3e
       0.630441 0.39659107 0.5426386 0.31760433
0000e0 47 7d e2 3e 15 db ef 3e a0 74 9f 3e 2d 27 e0 3e
       0.44236204 0.46846834 0.31143665 0.4377989
0000f0 e8 db 7c 3e 39 f4 4f 3f b6 1a 17 3f 37 84 29 3e
       0.24693263 0.8123203 0.5902513 0.16554342
000100 d5 a3 0f 3e ef 71 42 3e 1d 80 48 3e d4 65 0e 3f
       0.1402734 0.18988775 0.19580121 0.5562413
000110 39 71 85 3d 75 17 07 3f 81 f7 0e 3f 9b 05 0a 3f
       0.06515736 0.5277017 0.5584641 0.53914803
000120 84 dc 15 3e e8 28 8e 3d fb 56 97 3e ce 1d 63 3e
       0.14634901 0.06941396 0.29558548 0.22179338
000130 09 72 ff 3d 2a 03 07 3f 61 dc 24 3f de 9b b7 3b
       0.12472922 0.527392 0.6439877 0.0056032976
000140 c0 3d 34 3f 00 88 14 3d 0f 5e 2b 3e 9e ab ee 3e
       0.70406723 0.036262512 0.167351 0.4661531
000150 22 29 dd 3d ac 5c a7 3d 27 f6 32 3e 51 bd 91 3d
       0.10798861 0.08171973 0.17476712 0.07116187
000160 fb 5a d7 3e ca 25 03 3f c6 61 45 3f 33 07 09 3f
       0.420616 0.51229537 0.77102315 0.5352661
000170 53 56 29 3f ca 08 dc 3e 87 5a 36 3f e7 84 94 3e
       0.66147345 0.42975456 0.71231884 0.29007646
000180 6f ee cf 3e 8f 63 09 3f 65 bd 8d 3c 1a 15 f3 3e
       0.40611598 0.5366754 0.017302224 0.47477037
000190 1c bd 5d 3e b6 39 3d 3f ea 0a e7 3e 4b 4b 63 3f
       0.21654171 0.73916185 0.45125514 0.8878676
0001a0 9c 52 66 3e f4 4f 23 3f 0c f9 8a 3e a7 c0 53 3f
       0.2249245 0.63793874 0.27143133 0.8271584
0001b0 11 12 f5 3e aa ca 8a 3e 5b ea df 3e 4a 9a 58 3e
       0.47865346 0.27107745 0.43733487 0.21152607
0001c0 a5 53 bb 3e 93 44 ae 3e 55 3d a0 3e dc 2d 6f 3f
       0.36587253 0.34036693 0.31296793 0.9342935
0001d0 59 b6 a2 3e 15 6a 7f 3e e8 43 f5 3e 25 d5 0e 3f
       0.31779745 0.24942811 0.4790337 0.5579398
0001e0 c0 80 31 3e d7 70 54 3f e1 b0 83 3d 26 f4 e7 3c
       0.1733427 0.8298468 0.06430221 0.028314661
0001f0 08 c3 93 3e be f0 06 be f6 56 1b 3f 2f 17 96 3e
       0.28859735 -0.13177773 0.60679567 0.29314563
000200 85 35 c8 3e 57 c5 04 3f ff ef 13 3f 28 09 f6 3e
       0.39103332 0.51863617 0.5778808 0.4805386
000210 cb c9 67 3f f6 b0 2e 3f 65 b7 eb 3e 92 b5 14 3f
       0.90542287 0.6823877 0.46038356 0.58089554
000220 84 96 f4 3e 68 b8 19 3f a7 00 38 3f 45 fc 12 3f
       0.47771084 0.60047007 0.71875995 0.5741618
000230 e9 08 15 3f b5 39 e2 3e 95 1d 22 3f 31 03 2b 3e
       0.5821672 0.44184652 0.6332639 0.16700436
000240 98 0e 04 3e 71 ca 7a 3e a9 9f f8 3b 1f b0 96 3e
       0.12896192 0.24491288 0.0075873923 0.29431245
000250 d4 98 e8 3e 27 4b ec bd 68 77 f1 3e 6f b3 31 3f
       0.454291 -0.11537772 0.47161412 0.6941442
000260 39 4f c2 3e 92 30 71 3d 9f ef b3 3d f2 69 f9 3d
       0.37951067 0.05888421 0.087859385 0.121784106
000270 8d ff 09 3f 55 ec ef 3e dc db 81 3e 16 58 42 3e
       0.53905565 0.46859995 0.25363052 0.18978915
000280 fd a4 1a 3e b6 db 05 3f 93 f4 11 3f 05 d6 34 3f
       0.15102 0.5228838 0.57013816 0.7063907
000290 eb 3a b9 3e bd d0 19 3d a4 28 ec 3d 60 22 90 3d
       0.36177763 0.037552584 0.11531189 0.070378065
0002a0 57 5e 5f 3d ba 37 a6 3e 6f 8b 33 3f 45 7b 8f 3e
       0.05453333 0.3246439 0.70134634 0.28023735
0002b0 6c 72 fb 3e 55 32 92 3d f5 0b ea 3e 3c dc 34 3e
       0.49110734 0.07138506 0.45712247 0.17662138
0002c0 20 5d d2 3d 63 29 f5 3e 7d bd 90 3e 41 8a e2 3e
       0.102716684 0.47883138 0.28269568 0.44246104
0002d0 9b 74 6c 3e 67 1a d9 3d 40 c9 2d 3f e6 2f dd 3d
       0.23091356 0.10600739 0.6788521 0.108001515
0002e0 56 17 37 3e 2b 66 d6 3d 9e 1b b3 3e 10 05 ba 39
       0.17879996 0.10468706 0.34982008 0.00035480456
0002f0 1f d0 cb 3e 68 79 ff 3e 23 6a 04 3d 5c 1b 3f 3f
       0.3980722 0.49897313 0.032327782 0.7465112
000300 70 d1 bb 3e f3 04 3b 3e 92 b1 8a 3e 67 5e 52 3d
       0.36683226 0.18263607 0.270886 0.05135956
000310 bc 14 9a 3e 7f fa bf 3e c2 9f c3 3e 2a 4c 2d 3f
       0.30093944 0.374958 0.38207823 0.6769434
000320 81 e3 2c 3f 00 1f 88 3d 46 8c d1 3e 26 e6 8d 3e
       0.67534643 0.06646538 0.40927333 0.27714652
000330 65 5d 02 3e cf 3e 0a 3f 72 ee 02 3d 7c a5 73 3f
       0.1273094 0.5400209 0.03196568 0.95174384
000340 9d ec 8e 3e 7b 08 ae 3e 1d 1e 17 3f 74 98 a0 3e
       0.27914897 0.33990845 0.59030324 0.31366313
000350 ff 3b 81 3e ca 9e 23 3f 73 f4 2e 3f ff 07 a5 3d
       0.25241086 0.6391417 0.6834175 0.08058166
000360 32 18 c7 3e 9a 51 58 3e fe 8c c8 3e 49 2a 59 3f
       0.38885647 0.21124879 0.39170069 0.8483015
000370 99 e7 11 3f ea 9b 2d 3f 98 a6 14 3f 50 20 5e 3e
       0.56994015 0.6781603 0.580667 0.21692014
000380 dc 97 63 3f 8b 26 0f 3f 79 76 d4 3d d6 ed 1e 3f
       0.88903594 0.55918187 0.10374159 0.6208166
000390 91 97 3f 3f c2 42 ce 3e f2 a8 12 3e ef 39 36 3f
       0.74840647 0.40285307 0.1432226 0.7118215
0003a0 27 35 0b 3e 3c 8f 7e 3f 59 c8 0e 3f 6f f5 0d 3f
       0.13594495 0.9943731 0.55774456 0.55452627
0003b0 8c 0c df 3e 88 16 0c 3c 8b 65 34 3d 4f 38 66 3e
       0.4356426 0.008550294 0.04404215 0.22482418
0003c0 70 bb 88 3e 58 67 6a 3f c0 22 d0 3e 50 eb c0 3d
       0.26705503 0.9156394 0.40651512 0.09419882
0003d0 c1 47 0c 3f 64 af 22 3f de 40 3e 3e ad f0 f4 3d
       0.5479699 0.63548875 0.18579432 0.11959968
0003e0 c3 91 ed 3e 72 ef 75 3d 6a 1c 13 3f a7 05 8f 3e
       0.4640027 0.060042806 0.5746523 0.27934
0003f0 a2 5a 3b 3e 6c f3 e6 3e 81 aa 87 3d b3 4a e3 3e
       0.18296292 0.4510759 0.06624318 0.44392928

bn1.bias f4 [256]
000000 c2 54 a9 3d 62 6a af 3d 7d 11 04 3d b9 cd 97 3c
       0.082681194 0.08565213 0.03224324 0.018530713
000010 e3 1b d1 bc 01 af 80 bd 6f 54 8f 3c f8 37 76 3d
       -0.025525993 -0.06283379 0.017496316 0.06011197
000020 90 80 f6 3c f4 db cd 3d 8c e4 e8 3c 47 fa 86 3d
       0.0300906 0.10051718 0.028429292 0.06590705
000030 52 33 5b bd 15 97 97 3b fd 88 cc 3a ac 68 b0 bc
       -0.05351574 0.0046261647 0.001560479 -0.021534286
000040 05 eb 29 be 39 9b df 3d 72 c8 38 bd 79 12 82 bd
       -0.16593559 0.10918278 -0.045113035 -0.0635118
000050 2b dd 0e be b7 c1 94 3d 7c b4 c5 bd af 63 c7 bd
       -0.13951556 0.07263511 -0.09653565 -0.0973581
000060 a2 44 b0 ba 5e b9 cf bc 0b 6d cf 3d 94 c6 f1 3b
       -0.0013448189 -0.025356945 0.1012822 0.0073784087
000070 d4 5d 78 be 3f f6 73 3c f7 5a 23 3d a8 e0 0d 3e
       -0.24254543 0.014890253 0.039881673 0.13855231
000080 af 80 fa 3d f4 c6 d8 3d 47 75 0e be 23 51 ff 3c
       0.12231576 0.10584822 -0.13911925 0.031166619
000090 a1 60 de bd bd 0b db 3d 51 77 2b 3e 45 69 00 3e
       -0.10858274 0.10695598 0.16744734 0.12540157
0000a0 f1 d5 0e bd b6 5a a5 3c 3d 5b 12 3e 34 a2 4c bd
       -0.034872 0.020184856 0.14292617 -0.049959376
0000b0 b4 5a 0c 3d 49 6e 68 3d f2 9e 09 be 05 a8 c4 3d
       0.03426619 0.0567458 -0.13439539 0.0960236
0000c0 c8 55 29 bc 6c ea 0f be 9d a1 dc bc 94 db 1e be
       -0.010335393 -0.14054269 -0.026932532 -0.1551345
0000d0 0c 4c 66 3d 95 29 d4 bb eb f4 9a bd e2 30 81 be
       0.056224868 -0.0064746835 -0.07566246 -0.25232607
0000e0 fc 95 91 bd 96 39 99 bd cf 79 45 3e f6 f6 62 be
       -0.071086854 -0.07481687 0.19284748 -0.2216452
0000f0 09 88 9e 3d fc 4b 17 3e c0 3c 3a bd 7b c9 50 3d
       0.077407904 0.1477508 -0.045468092 0.050973397
000100 59 57 e6 3d 4d 11 8b 3c 33 de 59 3d 25 5e fc bd
       0.11247129 0.016976023 0.05319042 -0.12322644
000110 10 16 88 bd 67 7e 02 be ac 3e c4 3d a5 4c 37 3e
       -0.06644833 -0.12743531 0.09582266 0.17900331
000120 30 82 cd bd cd a6 05 3d 60 4e e6 3c a4 ce f3 bb
       -0.10034597 0.032629777 0.028113544 -0.007440405
000130 1f 98 20 3e e8 d6 29 3e de 8e c9 3d 7b 3d 12 be
       0.1568303 0.16585886 0.09841703 -0.14281265
000140 5e c2 ac bd e8 b7 98 3e 1a 7c 41 3e 10 8b 94 3d
       -0.0843551 0.2982781 0.18894997 0.072530866
000150 8a cd cd 3c 3a 5a 6a be 30 b0 f6 3c e0 92 06 be
       0.025122423 -0.22885981 0.03011331 -0.13141966
000160 f4 b2 5b 3e 96 63 14 3d 9d b2 7c 3d 94 13 49 be
       0.21454984 0.036227785 0.061693776 -0.19636375
000170 64 51 93 bd d1 f4 49 3c 45 e8 90 3d ca b6 9d 3d
       -0.071932584 0.012326435 0.07075552 0.0770088
000180 d0 ee 04 3e 5d a5 d0 3c d7 8e 4e be 93 8a 3b 3d
       0.12981725 0.025469476 -0.20171677 0.04578645
000190 69 4e 9c bd ba 52 2f 3e 41 a3 cf 3d 35 ae 56 3e
       -0.07632143 0.17121401 0.1013856 0.20964892
0001a0 c5 80 b3 3d 6f d4 0d 3e 12 31 aa 3c 9b c4 1e 3e
       0.08764795 0.13850568 0.020775352 0.15504687
0001b0 61 31 00 bd 7e ee 99 3d fb 64 0d 3e ca 75 c3 bd
       -0.03129709 0.07516192 0.13808052 -0.09543951
0001c0 0f e1 ea bb 3e 21 30 bd 18 b5 6b 3d b4 2c 30 bc
       -0.0071679424 -0.043000452 0.05754575 -0.010752846
0001d0 b5 87 3a 3d 0b 86 af bd 34 bc 3b 3d 0d 8d 61 3d
       0.045539577 -0.085704885 0.04583378 0.055066157
0001e0 0b 7e 58 be 74 6c 14 3d 77 46 08 3c a2 78 88 3e
       -0.21141832 0.03623624 0.008317581 0.26654536
0001f0 5d 05 aa 3d 2d 68 11 be 1d 2b 92 bd 26 94 94 bd
       0.08301804 -0.14199896 -0.071371295 -0.072548196
000200 28 31 89 bc bb 05 2a 3d 23 1f ce bd f4 d6 22 bb
       -0.016747072 0.04150937 -0.100645326 -0.002484736
000210 9d eb f8 3d 6c 7b 17 3e 87 c5 84 bd 77 1e 65 3d
       0.12154315 0.14793175 -0.06482988 0.055937257
000220 13 1a 05 bd 56 37 ab bd 2b 81 f5 3d 1f 96 5a bd
       -0.03249557 -0.08360164 0.119875275 -0.053365823
000230 6c 7d a1 bd 4f c8 48 bd ab a1 49 bd 9c d5 a9 3d
       -0.078852504 -0.049019154 -0.049226444 0.08292696
000240 9d 2b bb 3d 36 9e 07 3e c7 31 73 be 6c 5c c5 bc
       0.09139178 0.13243946 -0.23749457 -0.024091922
000250 f5 82 58 bd 07 21 82 be 2e 6c 9a 3d 10 18 ab bc
       -0.052859265 -0.25415823 0.07540165 -0.020885497
000260 ca 56 87 bd 8f dc b5 3c f2 02 73 be c8 9b 02 3e
       -0.066083506 0.022199897 -0.23731592 0.12754738
000270 57 54 e6 3d 90 4e 13 bb 74 09 1f 3e ca 56 dd 3c
       0.11246555 -0.0022477247 0.1553095 0.027018923
000280 ff 48 e5 3d 78 4f a3 3b 6e e9 49 3e 22 f2 42 bc
       0.111955635 0.0049838386 0.19717953 -0.011898549
000290 e0 9e 29 bd 80 43 04 3e e3 3c 0e bd fb 52 f4 3d
       -0.04141128 0.12916374 -0.034726035 0.1192989
0002a0 2c af 97 bd 61 48 31 3e c4 93 cc 3d 00 ca 05 3e
       -0.07406458 0.17312767 0.099891216 0.13065338
0002b0 35 53 36 3e 53 d3 2a be 66 db 45 3d 2c 32 4a 3e
       0.17805178 -0.16682176 0.048304938 0.19745702
0002c0 24 6c 02 bd d2 9e 34 3c ad c1 c3 bc d1 5a 20 3e
       -0.031841412 0.011024194 -0.023896063 0.15659644
0002d0 2c 10 82 3d be 52 89 3d 61 07 55 3d ee 2b 00 be
       0.06350741 0.06705235 0.05200899 -0.12516758
0002e0 11 4e 17 bc f1 6e ca 3d be b9 93 3c 81 54 88 3e
       -0.009234921 0.09884442 0.018032905 0.2662697
0002f0 93 8c 9f 3d 05 5d 9b 3d b0 d5 82 3e 80 f3 58 3d
       0.07790484 0.075861014 0.25553656 0.052966595
000300 e9 9c 9d 3d e7 72 03 bd 1f c1 2e bd 9a 64 7e bc
       0.07695944 -0.032092 -0.042664643 -0.015526915
000310 08 33 09 bd bf 76 6a 3d 95 12 09 3e 46 46 5a bd
       -0.033495933 0.05724215 0.13385995 -0.053289674
000320 46 76 de bd d2 e7 88 3d 48 88 e1 bc 58 e6 81 bd
       -0.108624026 0.06684841 -0.027530804 -0.06342763
000330 b4 9a 7e be 50 ca ee bd cb 5c 8c 3e 4f ec be 3c
       -0.24863702 -0.11659682 0.27414545 0.02330604
000340 ba 32 94 3d 63 e2 8b bc 00 31 76 bd 6c 51 c4 3c
       0.07236238 -0.017075723 -0.060105324 0.023964606
000350 de ac a8 3d 23 44 83 3c 03 6d 36 3d b6 b3 84 bb
       0.08236097 0.016023701 0.044537555 -0.0040497435
000360 b6 b6 f0 3d d5 bd fd bd 01 37 56 3c ad 8b 9d 3d
       0.11753599 -0.12389723 0.013074637 0.07692657
000370 66 d2 c0 bc 11 a2 bb 3d b5 4c 5e bd 7c 4a 7e 3d
       -0.023537826 0.09161771 -0.054272372 0.062082753
000380 d0 b5 80 3d c9 5f d6 3d e5 bc 7c 3d 2c 2d ba 3c
       0.06284678 0.10467488 0.06170358 0.022726618
000390 f4 86 fa 3d 76 ff cd 3c 04 f3 20 be 2a 17 11 3d
       0.122327715 0.025146227 -0.15717703 0.03542248
0003a0 28 8c eb bd 22 99 8d 3b d1 be 11 3e e2 52 68 bd
       -0.11501342 0.0043212334 0.14232947 -0.05671967
0003b0 f0 e8 98 3d 30 47 2a 3e 8f 1a 1b 3e 37 13 9b 3b
       0.07466304 0.16628718 0.1514685 0.004732515
0003c0 15 3d d4 3d e3 6e 83 3d 68 96 5b bd 4d f6 a5 3d
       0.10363213 0.06417634 -0.053610235 0.08103619
0003d0 64 be 80 3c e3 be cd 3d df 4c e2 3d 85 f9 b8 bd
       0.015715785 0.100461744 0.11049818 -0.09031967
0003e0 a1 84 b7 3b 7e 8c 14 3e f7 6b 4e bd a2 dd 8f 3d
       0.0056005274 0.14506719 -0.050395932 0.07024695
0003f0 f5 c8 44 bc c3 bb 8d 3d 46 17 bb bd fc a6 91 bd
       -0.0120108025 0.06920578 -0.091352984 -0.07111928
