checkpoint_actor.pth (torch_old, 296400 bytes, 10 tensors)

fc1.weight f4 [256, 24]
000000 92 71 2a 3d 4c ce 79 3d 91 43 86 bc 23 52 15 3d
       0.041612215 0.060987756 -0.01638964 0.036455285
000010 24 7e c8 bc 07 2a 1b bd 47 c4 a3 3c e0 b5 46 3b
       -0.024474211 -0.037881877 0.019991053 0.0030320808
000020 e7 c5 9f 3c 0a 3c 19 3d 01 36 de b9 9f 6d 55 3c
       0.019503547 0.037410773 -0.00042383376 0.013026624
000030 14 76 e7 bd d8 39 1e bd ee a0 05 3c 2f 41 12 3d
       -0.113018185 -0.038629383 0.008156044 0.035706695
000040 a7 84 30 3d a9 e8 00 3d 96 12 c2 bc 59 9d 6e 3a
       0.043095257 0.031471882 -0.023690503 0.0009102426
000050 e1 29 46 be eb 04 d2 bc e4 8e d5 3c 48 12 84 3b
       -0.19351913 -0.02563711 0.026069112 0.0040304996
000060 5a c9 1d 3e d5 c9 74 bb 24 83 d4 3c 90 3f 3f bd
       0.15408841 -0.0037351747 0.025941439 -0.046691477
000070 7e fe 6c bc 5e 87 16 be 20 1a 79 bd a8 d1 15 3d
       -0.014464973 -0.14700076 -0.06081593 0.036576897
000080 db f2 ba 3d 67 26 02 3d ec 0e b1 3b 19 24 39 bb
       0.09128352 0.031774905 0.00540339 -0.0028250276
000090 6d 79 3f bd 99 0d cc bc 48 7a 30 3b 6c ea 49 3d
       -0.04674666 -0.024908828 0.0026928354 0.049295828
0000a0 bb 11 af 3d bc 6a 2b 3d 9b 74 d4 ba 4a 92 1b 3d
       0.08548304 0.041849837 -0.0016209068 0.03798131
0000b0 c8 04 85 bd 4f d1 cc bd 52 af d0 3c 0f 19 e1 3c
       -0.064950526 -0.1000086 0.025474224 0.02747777
0000c0 f7 de f3 39 e3 fb 1c 3c 2c d7 34 bd 53 10 0a bd
       0.00046514694 0.009581539 -0.044150516 -0.033706974
0000d0 bf af 4d bd 62 40 f6 bc 17 ed 6a ba 7c ac c4 bd
       -0.050216433 -0.030059997 -0.0008961721 -0.09603211
0000e0 62 01 09 3d b3 07 32 bc ae a7 82 bc b1 19 27 bd
       0.033448584 -0.010866093 -0.015949097 -0.040795986
0000f0 4e 92 a5 bb 21 cc ea 3c 9b 66 54 bd f5 db 53 bd
       -0.0050528413 0.02866179 -0.051855665 -0.05172344
000100 ac 55 d2 bb 20 58 95 bd c2 ac 9a 3b cd 5f 16 be
       -0.0064189043 -0.07292199 0.0047203014 -0.14684983
000110 b3 8e 0a bd 9c c5 82 3c 82 6a 69 3d 26 b4 e3 bd
       -0.033827495 0.015963368 0.05698634 -0.11118345
000120 11 9b a9 3d f3 d4 6c 3e 3c b2 d1 ba 31 80 fa 3a
       0.0828153 0.23128109 -0.0015998553 0.001911169
000130 8e 6e 75 3d 66 aa 4b 3d 22 25 78 b9 2c 3a b7 3d
       0.059919886 0.04972305 -0.00023664956 0.08946642
000140 44 46 a5 3d 95 c8 5f 3e ab 18 05 3d 20 43 db ba
       0.08070043 0.2185386 0.03249423 -0.0016728379
000150 63 64 39 bc 17 9b d1 bc ee 4d 04 bd f2 87 92 3d
       -0.011315438 -0.025586648 -0.032300882 0.07154836
000160 25 49 00 3e b8 b9 9d 3e 38 38 82 3c b8 e1 b0 3c
       0.12527902 0.30805755 0.015895948 0.021592006
000170 7e ec 2a 3d a0 65 4d 3d 70 23 f4 bc 49 76 46 bc
       0.041729443 0.050145745 -0.029802054 -0.012113162
000180 be 30 62 3d 9d ba 09 3d ef d3 9d bd aa 61 07 bb
       0.055222265 0.033625234 -0.07706439 -0.0020657578
000190 01 94 56 3d f3 ad 80 bd 76 44 1b bd 0e f9 ca bc
       0.05238724 -0.06283178 -0.037907086 -0.024776962
0001a0 cc df 9c 3d 70 96 3c bd 52 fd 0d 3d aa 43 1c bd
       0.07659873 -0.046041906 0.034665413 -0.038150467
0001b0 09 f6 86 bd bf 07 57 bb fb 1c ae bc 5d d6 80 bd
       -0.06589896 -0.0032811014 -0.021254053 -0.062908866
0001c0 cb 60 5c 3d 1b 4c 07 bc cc 66 1f 3d 0b 4f ff bd
       0.053803246 -0.008257891 0.038916394 -0.12466248
0001d0 73 67 4e bd d8 98 27 bc 32 ba bf 3c 74 5b 14 be
       -0.050391626 -0.010229312 0.023404215 -0.14488012
0001e0 81 a3 27 3d 5f 46 98 bd e6 41 b1 bb b8 5b a6 3d
       0.040927414 -0.07435297 -0.005409467 0.08122963
0001f0 0a 8b f7 bd db df e9 3b 44 2c 6a 3d 2c a5 e8 3d
       -0.120870665 0.0071372814 0.05717112 0.11359629
000200 e0 a5 3b 3d eb e6 fd 3b 39 2a 53 3c a3 6b fe 3d
       0.045812488 0.007748475 0.012888485 0.12422874
000210 c7 41 7d bc 76 39 83 3c 53 ea 8c 3c de 42 8a 3d
       -0.015457577 0.01601861 0.017201578 0.06751035
000220 cd 2e a6 3d 8c f8 56 3d 76 52 26 3d 31 01 e0 3d
       0.08114395 0.052483127 0.040605985 0.10937727
000230 7d db 36 bd fc 7a cb 3c 09 6b f9 bc 9c 62 23 3d
       -0.044642914 0.024838917 -0.030446546 0.039888963
000240 df f6 83 bd 9b 70 ae bc f2 56 31 bd ab f7 95 3d
       -0.06443571 -0.021293929 -0.043295808 0.073226295
000250 ee 71 e3 3c d1 a4 10 3e 44 e0 91 3c 8e 67 61 3d
       0.027764287 0.14125372 0.017807133 0.055030398
000260 d0 a9 33 bd a4 84 98 3d 81 82 cd 3c 87 20 fe 3d
       -0.043863118 0.07447174 0.025086643 0.12408548
000270 e8 93 0d 3d 7d 61 de 3c 47 21 84 3c 6b b2 a9 3d
       0.034564883 0.027146095 0.01612915 0.08285984
000280 51 71 04 3d aa 39 5e 3e 83 40 53 3c f2 21 03 3e
       0.03233463 0.21701685 0.012893799 0.12805918
000290 58 57 63 bc e5 e5 3e bc 15 3c 91 bd a4 94 9d 3d
       -0.013875805 -0.011651491 -0.07091538 0.076943666
0002a0 52 7f e8 3a ad b1 33 3d e1 a3 65 3c 63 c8 c1 3d
       0.001773814 0.043870617 0.014016123 0.09462049
0002b0 ae 19 aa bd 20 bf 9e bd ff 3b df 3c 17 e1 e5 3c
       -0.08305679 -0.07751298 0.027250288 0.028061433
0002c0 30 a8 17 3d 88 f8 b4 39 a8 52 b9 3c a8 a3 91 3c
       0.03702563 0.00034517446 0.022622421 0.017778233
0002d0 13 11 34 bd 29 52 e4 bd 3a 86 ca bc fb 6b c8 3c
       -0.043961596 -0.11148483 -0.024722207 0.024465552
0002e0 8f e6 08 bd ef 4a d8 bb 3e 45 50 bd 0f 81 bb 3c
       -0.033423003 -0.0066007297 -0.050847284 0.022888688
0002f0 7e 98 41 3d ea 94 5b be de cd 5d 3d 77 fa a2 3d
       0.04726457 -0.21443525 0.05415141 0.07957929
000300 14 ed 71 bd 25 5b 42 3d 54 01 45 bd 4b a3 09 3c
       -0.059063986 0.047450203 -0.04809697 0.0084007485
000310 37 cd 7c bd 1e 8e db bd 1a e6 4e 3d 92 7e 17 3d
       -0.061719146 -0.10720466 0.05051241 0.03698594
000320 ea 1a 23 bd 73 eb 67 3d ec da 0a bd b8 36 73 bc
       -0.03982059 0.056621026 -0.033900186 -0.014844589
000330 72 1d 33 bc 50 cd 4a be af e8 01 3d 28 23 c4 bc
       -0.010932313 -0.19804883 0.031716045 -0.023942545
000340 ae 6b 4c bb e5 5d c0 3d 31 0b 67 3c c3 0c c3 3b
       -0.0031192112 0.09392909 0.014101789 0.005952449
000350 b4 74 0a 3c dd 52 3e be a3 55 5b 3b b5 a1 29 3c
       0.008450676 -0.18586297 0.0033467792 0.010353495
000360 b8 82 cc 3a 57 43 df bc c1 ed 4b 3c 9e 52 aa bc
       0.0015602922 -0.02725379 0.012446822 -0.020791348
000370 c5 89 c3 3d 04 76 14 3d 89 ff 1a bd 7c eb 2d 3b
       0.09547762 0.03624536 -0.037841354 0.0026538065
000380 37 de 08 3d 2b 7c 11 be a5 d4 41 3c a7 6a 27 3d
       0.033415046 -0.14207523 0.011830484 0.040873196
000390 0e e3 47 bd 4b d1 b7 bb 10 20 fc bc 9d 59 35 bd
       -0.04880052 -0.0056096665 -0.030777007 -0.044274915
0003a0 d0 e0 57 3d ed 04 9c bd 36 f6 87 3c 1d 8d ab 3c
       0.052704632 -0.07618127 0.016596895 0.020941311
0003b0 d7 fe 4a be c9 6f 10 bd 23 46 bf bc c4 1a 50 bc
       -0.19823776 -0.035262857 -0.023348873 -0.012701694
0003c0 0e ac c5 3b ff c6 95 3d 1f 33 93 3b e6 a0 50 3c
       0.0060324734 0.07313346 0.004492178 0.012733674
0003d0 c8 61 11 bc 53 d1 95 bd 8a 3d 09 bb e6 53 20 3d
       -0.0088734105 -0.07315316 -0.002094122 0.03914251
0003e0 c2 1f 80 bd 87 23 d0 3d 44 96 1d bd b8 dd 32 3c
       -0.06256057 0.10163026 -0.038473383 0.01091712
0003f0 f6 16 c2 bc b1 67 38 be 1e e4 30 3d aa 1b 19 bc
       -0.02369259 -0.18008305 0.0431863 -0.0093449745

fc1.bias f4 [256]
000000 35 78 48 be 76 22 19 bd 35 a3 89 3c ef b1 85 3d
       -0.19577105 -0.03738638 0.016801456 0.06528079
000010 38 a4 02 be 5f 39 46 be b1 89 41 be 36 5d f5 3b
       -0.12757957 -0.19357823 -0.18900181 0.0074879183
000020 6a 67 30 be 09 b3 5b be 97 45 48 3e ef ca c1 bd
       -0.1722695 -0.21455015 0.19557796 -0.09462535
000030 b8 68 04 3b 1d b9 8f be 36 c5 cf 3c 2b 64 26 3e
       0.0020204019 -0.28070918 0.025362592 0.16249149
000040 ba a2 30 bd 1f f4 24 3d 0f 17 58 be 25 b1 25 be
       -0.04312394 0.040271875 -0.21102546 -0.16180857
000050 15 9d 86 3d 54 60 4e be 92 53 10 be 70 e5 91 be
       0.0657293 -0.20153934 -0.1409438 -0.2849536
000060 2a a7 83 bc 69 f3 86 be 46 b0 61 bd cf ca a4 bd
       -0.016070921 -0.26357582 -0.055099748 -0.08046495
000070 7d dc 5d be ba dd 24 be 43 e4 25 be 3d 34 0e be
       -0.21666141 -0.16100207 -0.16200356 -0.13887115
000080 b2 b7 ac bd 87 09 e0 3d 06 6c 4d be 85 a5 8b 3d
       -0.084334746 0.10939317 -0.20060739 0.0681868
000090 43 40 83 be e9 d3 2d 3e aa 88 59 be 76 b9 67 3b
       -0.25634965 0.16975369 -0.2124354 0.0035358346
0000a0 ce 40 0c be 12 d8 78 bd 63 a6 a9 bd 99 e8 e9 bd
       -0.13696596 -0.060752936 -0.08283689 -0.114213176
0000b0 91 d1 ac bd d1 2c 0e be bc 1f 39 be 5c 4d 19 be
       -0.08438409 -0.13884284 -0.18078512 -0.14970917
0000c0 96 31 05 3e 07 2e 13 3d bb 18 3c be 6f 58 5f 3e
       0.13007197 0.035932567 -0.18368809 0.21811078
0000d0 0c 66 40 be 6a a9 39 be fb b8 c2 3d 23 98 71 bd
       -0.18788928 -0.18131033 0.095079385 -0.05898298
0000e0 71 55 92 3d 56 a7 06 be 2d dd 76 be fc b5 1e 3d
       0.07145203 -0.13149771 -0.2410781 0.038747773
0000f0 a4 87 77 bd af c7 6c bd cd 38 c8 bd 7d 77 a0 be
       -0.06043209 -0.05780762 -0.09776459 -0.31341162
000100 2a bc 25 bd 12 67 cf bc 26 c6 3f be 2d 26 df 3c
       -0.04046265 -0.025317702 -0.18727931 0.027239883
000110 94 72 85 be 41 6d 34 be f2 86 c6 bd 9b 3e 68 be
       -0.2606398 -0.17619802 -0.096937075 -0.22680132
000120 33 4f 97 be ce 32 f7 bd 69 f8 0e be 04 f5 0d 3e
       -0.29552612 -0.12070237 -0.13961948 0.13862997
000130 ac 3c 31 bd 96 33 50 3e 0a ac 01 3c 58 03 39 3d
       -0.04327075 0.20332178 0.007914552 0.045169204
000140 a2 75 0a be 69 9e 80 bd 9c 23 87 be 13 e5 5e be
       -0.13521436 -0.06280214 -0.26394355 -0.21767072
000150 91 d2 ae 3d db 16 38 be 89 7e 08 be d5 e3 d4 bd
       0.08536256 -0.17977469 -0.1332952 -0.10395018
000160 18 b8 66 be a6 14 5d bd f0 c1 07 bd e6 5a 49 bd
       -0.22531164 -0.05397477 -0.033143938 -0.049158953
000170 4d 9d 4b be 02 31 4f 3d 8d 00 99 be 48 30 9d be
       -0.19884224 0.050583847 -0.29883233 -0.30700898
000180 fa b1 02 3d 85 12 41 bd 5f 13 4e 3e 0e fe 25 bd
       0.031908013 -0.047136802 0.20124577 -0.04052549
000190 d9 14 b4 3d 93 b1 96 bc 21 f5 51 bc d2 95 d6 3b
       0.08793039 -0.01839522 -0.012814791 0.0065486217
0001a0 bc a9 c9 bd 71 3f 81 3d 76 3a 47 3b 56 0f 06 be
       -0.098468274 0.063109286 0.0030399836 -0.13091788
0001b0 c2 d0 9a bd 1d 04 98 bc 2f a9 36 be 6b bc 9e be
       -0.07559349 -0.018556649 -0.17837976 -0.31003127
0001c0 ca c7 e8 bd c2 92 8d be 7b c6 5c be 3c ac 06 3e
       -0.11366232 -0.2765103 -0.2156009 0.1315164
0001d0 be 51 86 3d 7a aa 95 be cf c9 0c be 7a b4 ea 3d
       0.0655856 -0.29231626 -0.13748859 0.114602044
0001e0 a2 03 f0 bd 62 85 1f be 6d 84 f0 3d 24 74 db 3c
       -0.11719443 -0.15578225 0.11744008 0.026788779
0001f0 c5 9e 2b 3d 07 c9 31 3d 58 bb 70 bd 4b e2 bd bd
       0.04189946 0.043404605 -0.058772415 -0.092716776
000200 3f c1 85 bd c4 25 5a be e6 16 a0 be 14 d7 f6 bc
       -0.065309994 -0.21303469 -0.3126747 -0.030131854
000210 29 85 09 be a9 51 da 3d 09 b2 f9 3d 4a a5 5a bd
       -0.13429703 0.10660107 0.12192161 -0.05338029
000220 26 37 38 3d e2 2d 9c 3c 0d 5c b9 3b 47 8a 1c 3e
       0.04497447 0.019064847 0.0056567253 0.15287124
000230 81 04 d9 bd b8 7f 5e be 63 65 15 3e b7 96 8c bd
       -0.10596562 -0.21728408 0.14589457 -0.06864684
000240 19 7a 9c 3d 9e 05 8e be 6b fa 9a 3c 8a 04 6b be
       0.07640476 -0.2773866 0.018918237 -0.2295095
000250 fe 96 d9 bd 0f fd 1d 3e ad 0d 51 3d bd 93 95 3d
       -0.106245026 0.15428565 0.051038433 0.073035695
000260 dd e7 ca 3d 24 4e 6d be ae 50 02 3e f3 9c ec bd
       0.09907506 -0.2317434 0.1272609 -0.11553373
000270 0b d1 a3 3d 3d de aa 3a 8f 31 9b bd 57 5b 08 3e
       0.07998856 0.0013036203 -0.07577812 0.13316093
000280 0d a7 79 be 67 48 8b bc 6d 0c 1b bd 6f 8d 4b bd
       -0.24380131 -0.017002298 -0.037853647 -0.04969543
000290 cf fd d3 bc be 5b 1c 3e 91 d2 36 3d 25 16 10 3d
       -0.025877861 0.15269372 0.044634406 0.03517737
0002a0 32 cc 2c bd 1e 63 31 3d 5f 7d bf 3c df 14 94 be
       -0.042186923 0.043307416 0.023375211 -0.28922173
0002b0 3f 00 2b be cb ec 92 be fd b6 99 be d4 83 60 be
       -0.16699313 -0.28696284 -0.3002242 -0.21925288
0002c0 16 b6 05 be 09 88 27 3e 7e ab e5 bd 73 00 4f bd
       -0.13057742 0.16360487 -0.1121435 -0.050537538
0002d0 7c 03 36 be 41 0e 20 bc 61 3f 13 3e 94 1a de bb
       -0.17774767 -0.009769023 0.14379646 -0.0067780707
0002e0 72 ac 3f 3e 98 9c 46 be b0 3b 62 be 97 e8 0f be
       0.18718126 -0.19395673 -0.22093081 -0.1405357
0002f0 24 38 c4 bc 13 a1 26 3e 26 04 76 3c f5 1c db 3c
       -0.023952551 0.16272382 0.0150156375 0.026747206
000300 32 5d c5 bd c5 5f 1e be f3 05 df 3d aa 8c 06 be
       -0.09636916 -0.1546622 0.108898066 -0.13139597
000310 b7 ee 10 be a6 b1 88 3d 10 b9 30 3b 67 50 17 3d
       -0.14153562 0.06674509 0.0026965775 0.036941912
000320 dd cc 29 be 9e 4b 97 3c c2 3b 9b 3d bf 41 2a be
       -0.16582055 0.018468674 0.07579757 -0.16626643
000330 90 bf ff 3d cd 55 55 3e 1c 0d 07 be b9 e8 66 3d
       0.124877095 0.20833512 -0.13188595 0.056374285
000340 fb f1 0f be 8a a8 3b be e3 e8 7f bd 2d a2 52 be
       -0.14057152 -0.18326011 -0.062477957 -0.20569678
000350 dc 98 3f 3e 5e 7f b8 bd 9f 4d 93 bd 84 d9 1a be
       0.18710655 -0.09008668 -0.071925394 -0.15122038
000360 8d e6 9e 3d a0 9d 5e bd 4b 30 1b 3c c8 da ae bd
       0.07758818 -0.05434954 0.009471963 -0.08537823
000370 a4 e4 e2 bd 05 6a 67 3d c8 d5 4b 3e 0e 49 58 3d
       -0.11078766 0.056497592 0.1990577 0.052804045
000380 71 52 be bc a0 c6 27 be bd 66 6e 3d ef 63 d3 bc
       -0.02323267 -0.16384363 0.058203448 -0.025804488
000390 2c fa a8 bd 1d 2d d8 bd ce a6 60 3e 60 14 2f 3d
       -0.082508415 -0.1055548 0.21938631 0.04274404
0003a0 7d 92 fd bd 45 34 04 bd aa ac 4a bc 14 45 b3 bc
       -0.12381456 -0.03227641 -0.012370268 -0.021883525
0003b0 27 26 45 bd c3 7c 70 3d a0 29 ee bc 23 64 8b 3a
       -0.048132088 0.058712732 -0.029072583 0.0010634701
0003c0 d7 84 ca bd 53 a2 12 be 67 3b c8 3c 4a 3c 54 bd
       -0.098886184 -0.14319734 0.024442388 -0.05181531
0003d0 ba 9b 3d be 5d c2 0d 3e 6c 5c 23 bd d2 16 21 be
       -0.18516436 0.13843675 -0.039883062 -0.15731362
0003e0 96 ce a2 bd f4 01 e3 bd 65 92 90 bd a9 a6 8b be
       -0.079495594 -0.11084357 -0.070591725 -0.2727559
0003f0 17 00 78 3d 8c cf 08 3e bd 47 4f be 11 a6 4f 3d
       0.06054696 0.13360423 -0.2024221 0.050695483

fc2.weight f4 [256, 256]
000000 ed d0 38 3c c1 d4 47 bd d3 ee 32 3c bf 1b 0f 3e
       0.011280281 -0.048786882 0.010921198 0.13975428
000010 63 6a 9c 3c eb 56 32 3b 55 7e ef bc 05 55 5d bc
       0.019093698 0.0027212452 -0.029235044 -0.01350904
000020 25 2b 68 3c 0b d5 c5 bd 6d dc 39 bd e7 16 59 3d
       0.014170443 -0.09659775 -0.04537623 0.053000357
000030 4d 00 ae 3c f6 64 a7 bb a9 0c af 3c 20 0f cb 3d
       0.021240378 -0.005108471 0.021368342 0.09914994
000040 a6 dc dd 3c cd c8 eb 3d ab 30 1b bc 08 58 94 bc
       0.027082752 0.11512909 -0.009472053 -0.018108383
000050 58 15 a5 3c bb 93 83 3d ee 34 4d be ba 83 72 bd
       0.020151779 0.06424662 -0.20039722 -0.059207655
000060 36 47 aa bd 1b f7 25 3e f0 ff ee bd f9 fb 85 bd
       -0.08314364 0.16207545 -0.1166991 -0.065422006
000070 ea c5 82 3d 4f 10 8e bd 2d 02 2e 3e dd 51 f1 3d
       0.06385405 -0.06936704 0.16993017 0.11783192
000080 ad db 1c 3c 79 43 c5 3d d0 3d 23 be dd 2d 87 bd
       0.009573859 0.0963201 -0.15941548 -0.066005446
000090 83 de e9 bc e1 6c 8f 3d 47 0e 01 be 22 7f b2 bd
       -0.028548485 0.07003189 -0.12603103 -0.08715655
0000a0 a5 d2 18 bd bf 47 07 3d 40 e7 6f bd 44 55 14 3e
       -0.03731026 0.033027407 -0.058570147 0.14485651
0000b0 ad 8d 66 3e 6c 90 e6 3b c4 fd e6 bc 76 b6 19 3b
       0.22514983 0.0070362594 -0.028197177 0.0023454702
0000c0 02 cd 70 3d 8f 98 b4 3d 2f 1a 63 bd b7 7d cb 3c
       0.05878926 0.08818161 -0.055444892 0.024840219
0000d0 e3 28 85 bd 85 17 74 bd 97 71 48 3d 03 24 1a bd
       -0.06501939 -0.059592742 0.048936453 -0.037632
0000e0 69 2a b2 bd bd 58 2a bc 30 64 0c bc b1 e8 a4 bd
       -0.08699495 -0.010397133 -0.008568808 -0.08052195
0000f0 e1 50 76 bd 3a f2 03 be 2d 6e 39 be bc 4f 8a bd
       -0.060135726 -0.12885371 -0.18108435 -0.067534894
000100 64 ce c0 bd 1d b4 fb 3d d0 76 47 3b 35 bb 0d be
       -0.09414366 0.12290213 0.0030435808 -0.13840945
000110 15 9a ae bd 87 8a 66 bd 8a da 89 bd 74 86 80 3d
       -0.085254826 -0.056284454 -0.06731136 0.06275645
000120 b6 13 82 3d 5e ff d2 bd 4e 81 18 3e 9b fa c8 bd
       0.06351416 -0.10302614 0.14893076 -0.09813424
000130 ce 5e 84 3d 9e 5e 2a bc 1b ce 00 3e 6f 30 87 bd
       0.06463395 -0.010398535 0.12578623 -0.06601035
000140 bf ba 21 be d4 dc 0e 3e 79 e9 f7 3d bd 1f c0 3c
       -0.15793894 0.13951427 0.12105078 0.023452634
000150 fe d2 81 3b 08 3b 89 3d db 96 02 be 59 e2 4b 3d
       0.00396192 0.067007124 -0.1275286 0.04977641
000160 53 7f 12 be 4e 4b 88 3c b9 d3 29 be 63 05 dd bb
       -0.14306383 0.01663747 -0.16584672 -0.006745027
000170 e5 d1 17 be 48 95 c3 bd ce 95 b1 bd 92 66 2c 3c
       -0.14826162 -0.095499575 -0.08671151 0.010522502
000180 4c c4 94 bc c7 30 6f bc 6e 2c 64 3d b5 29 98 bd
       -0.018160008 -0.014599032 0.055706434 -0.0742983
000190 b1 18 ac 3d 87 af 86 3d fb be 7c bd 04 8a e8 3d
       0.08403147 0.06576448 -0.06170557 0.113544494
0001a0 ce ed e5 3b 0c 1d cb 3d c3 f6 2d bc f9 1f dc bc
       0.007016874 0.099176496 -0.010617915 -0.026870715
0001b0 ce d4 8d bd d9 ac ed bd d4 bb ef 3b 24 93 7f 3d
       -0.06925355 -0.11605234 0.007316092 0.062396184
0001c0 f2 6d 99 3d c8 cb c5 bd a6 77 7b 3b 40 27 8c bc
       0.074916735 -0.09658009 0.0038370877 -0.01710856
0001d0 d5 82 c9 bc fd 33 9c 3c 44 d0 0d 3d 62 05 28 bd
       -0.024598518 0.019067759 0.034622446 -0.04102076
0001e0 98 c6 9a 3d 21 36 8f 3c 6c c4 0a 3e 1d d1 90 be
       0.0755741 0.017481865 0.13551491 -0.2828454
0001f0 3a 98 4c 3e 84 2f 82 bd 1a 05 fa 3b af c2 9e 3d
       0.19979945 -0.06356719 0.0076300027 0.07751977
000200 fe 27 a0 bd 25 be 19 3d 16 3f aa bd 59 36 26 bd
       -0.07820128 0.03753485 -0.08312814 -0.040579174
000210 78 aa 7d 3d d6 42 e4 b9 5b 64 9b bd d7 28 e6 bd
       0.06193015 -0.00043537345 -0.07587501 -0.11238258
000220 b8 f3 93 bb a8 39 2a bd bd 66 1c 3e 9b 87 0e bd
       -0.0045151375 -0.04155889 0.15273567 -0.034797292
000230 55 e4 fa 3a 99 35 76 bd 54 9f 57 bd 4e 90 a4 3c
       0.0019141535 -0.06010971 -0.05264218 0.020088341
000240 e0 cb a1 bd b4 3d 8f bd 5b 3d 85 3c 1d ae 67 bd
       -0.07900214 -0.06994191 0.016264608 -0.05656253
000250 88 51 2c bd 40 34 f5 ba 36 81 d7 3c af 2d aa 3c
       -0.04206994 -0.0018707588 0.02630673 0.020773737
000260 91 f0 05 bd f0 f3 9c bd 71 2a 27 3d 32 4d 98 bd
       -0.032700125 -0.07663715 0.04081196 -0.07436599
000270 22 fb f6 bd 10 a4 ae 3c 7c 4c c1 3b 7c 9a d4 3d
       -0.120596185 0.021318465 0.00589901 0.10381028
000280 0e f8 8f ba ab 50 44 bc b2 79 ea bd 6f 1a 03 bd
       -0.001098396 -0.011982123 -0.11448993 -0.03200763
000290 f4 87 3d bd 3d eb d2 3d ea 96 07 3d 37 62 67 3c
       -0.046272233 0.102987744 0.033102907 0.014122537
0002a0 db 41 85 bd 44 a1 9b bd 47 66 68 3d 31 72 60 bb
       -0.065067016 -0.07599118 0.056738164 -0.003424775
0002b0 6e 14 fe 3b 5a 00 78 bd e3 eb 4b 3d a0 48 12 be
       0.0077539003 -0.06054721 0.049785506 -0.14285517
0002c0 c9 f7 bd 3b 61 b3 58 3d 3f a4 f4 3d 7f e7 ca 3d
       0.0057973606 0.052905444 0.1194539 0.099074356
0002d0 60 32 b1 3d 12 62 5e 3d 60 9e 0a bd 27 af ba 3c
       0.086521864 0.054292746 -0.033842444 0.022788597
0002e0 22 26 48 bc 0e 41 66 3d 4f 7d e7 bc 44 65 96 3e
       -0.012216123 0.056214385 -0.028257994 0.29374135
0002f0 b1 60 45 bd 4a 35 a4 bd 21 90 88 3c 0e 37 73 bd
       -0.048187915 -0.080179766 0.016670289 -0.059378676
000300 d7 b7 90 bd c7 c4 df 3c f2 af 32 3c 7d 72 56 bd
       -0.07066315 0.02731551 0.010906206 -0.05235528
000310 04 ab 45 bd 14 2e 29 be a1 ca 1d be 07 53 05 3d
       -0.048258796 -0.16521484 -0.15409328 0.032549884
000320 92 99 4f bd 58 87 6c 3d 53 a8 b0 bd ef 4b ef bd
       -0.050683565 0.05774626 -0.08625855 -0.11684405
000330 11 ae 7a bd 0e 36 07 3e e9 ea 0b 3d 5b 65 73 bb
       -0.06120116 0.13204214 0.034159575 -0.003713927
000340 97 93 95 bd ad 1f 91 bd a0 b4 98 3c 2b 1d 3e 3d
       -0.07303541 -0.0708612 0.018640816 0.046414535
000350 c3 de 35 bd 9b b7 91 3d b5 1a bc 3d 8b 1b 07 bd
       -0.044401895 0.07115098 0.091847815 -0.03298525
000360 3f 64 de 3c c2 3c bf bd d7 6c d1 bc 35 2e 51 bd
       0.02714741 -0.093377605 -0.025564594 -0.051069457
000370 61 ff cb bd ba 8b e9 bd 49 3b 3e 3e 6e 42 94 3d
       -0.09960819 -0.11403604 0.18577303 0.07239233
000380 7e 11 ab 3d da 12 91 bd ff 74 89 3d 6c bb 0f 3d
       0.08352946 -0.07083674 0.06711768 0.03509085
000390 de 2d c7 bb fb 60 89 bc 20 9b 5f 3d 63 08 cd bd
       -0.006078466 -0.016769877 0.054591298 -0.10011365
0003a0 c7 9e 18 bd 0f 66 e1 bd 5d fa 48 bd 63 86 2e be
       -0.037260797 -0.11005794 -0.04906689 -0.17043452
0003b0 3b 05 a5 3c 32 dd c7 bc ff 04 91 3d 9f b5 99 3d
       0.020144096 -0.024397466 0.07081031 0.075053446
0003c0 05 e2 0f 3d 3d 51 b3 bd 7e ba be 3c 87 26 26 be
       0.03512766 -0.08755729 0.023282286 -0.16225635
0003d0 2c 92 a4 bd 74 90 12 be 25 57 12 bd 6e 79 81 3c
       -0.080356926 -0.14312917 -0.03572764 0.015804972
0003e0 50 f7 ca bd ad 48 43 3d c5 28 04 be ad 0e 47 bd
       -0.09910452 0.04767673 -0.12906177 -0.04859798
0003f0 90 98 9a bb db f6 e6 bc d1 8c 13 3b 0a 57 14 3c
       -0.004717894 -0.028193882 0.0022514353 0.009053955

fc2.bias f4 [256]
000000 71 47 d5 3d 44 cc 23 3e 3c c7 0b 3d 73 41 b4 3d
       0.10414017 0.1599589 0.03412555 0.08801546
000010 14 e6 16 3e 73 4b 84 3d cb 1a 37 3d 07 d3 24 bd
       0.14736205 0.06459703 0.044703286 -0.040240314
000020 3f d1 08 bd f6 3d 2c bd 8f 44 2e 3e 41 07 84 3e
       -0.033402678 -0.042051278 0.1701834 0.25786784
000030 91 90 9d 3d 02 5a 35 3e ef 63 20 3d 28 e8 01 bd
       0.076935895 0.17710117 0.039157804 -0.031715542
000040 4d 13 aa 3c ee 3b c2 3d 2b 60 85 bb c7 db 0d 3d
       0.020761156 0.09484087 -0.004070302 0.034633424
000050 10 81 fb 3d 68 a8 f7 3d 9c af b0 3d 7f a1 1c 3e
       0.12280476 0.12092668 0.08627245 0.15295981
000060 b9 c8 94 3d a3 b7 18 3e 82 95 09 3d fa 70 2c 3e
       0.07264847 0.14913802 0.033589847 0.16839972
000070 93 45 e6 3d 29 dc b7 bc d6 3e d6 bc a1 9d 26 3e
       0.11243739 -0.022443848 -0.02615301 0.16271068
000080 47 94 86 3e 21 06 5c 3d 6f 05 af 3d fc de 17 3d
       0.26285002 0.053716782 0.08545958 0.03707789
000090 eb c1 5b 3d 3e 10 10 3d 36 46 9a 3d 7e 89 88 3b
       0.05365173 0.03517174 0.07532923 0.004166781
0000a0 73 36 8b bc 60 34 c7 bd 63 d9 d4 3d 00 09 86 3d
       -0.016993737 -0.097267866 0.10393026 0.06544685
0000b0 23 b8 45 3d 92 5e 55 3e 9a 31 e4 3d 56 6b 23 3e
       0.04827131 0.20836857 0.11142273 0.15958914
0000c0 07 8c 47 3c 5f d5 f5 3d a4 16 7c 3d 62 f3 ef 3c
       0.012179381 0.12003588 0.06154503 0.029290859
0000d0 b3 a0 c3 bd 8f cf 88 39 e5 1b 49 3d 65 48 e5 3d
       -0.09552135 0.00026094585 0.049098868 0.11195449
0000e0 84 0a 2f bc 5d 5b 10 bd 01 a4 a6 3d c9 d1 9c bd
       -0.010683659 -0.03524338 0.0813675 -0.07657201
0000f0 7b f6 16 bd 54 a9 af bc 06 da 39 3d de d6 f2 3d
       -0.036856156 -0.021443047 0.04537394 0.11857389
000100 93 8a bd bc 64 a1 4e 3d 51 cc cf 3c 7c 24 af 3d
       -0.023137366 0.050446883 0.02536598 0.08551881
000110 20 78 e6 3c 90 02 91 3d ae 76 dc bb 94 fd 6b 3e
       0.028133452 0.07080567 -0.006728015 0.23045951
000120 8f 31 87 bd e1 f3 de 3b ce 3a 72 bd 98 e5 86 3d
       -0.066012494 0.006803975 -0.05913811 0.0658676
000130 0c 14 0d 3d cb fc 1a 3e f9 e0 10 3e 21 1d 8d 3c
       0.034442946 0.15135495 0.1414832 0.017225804
000140 25 d4 72 bc 95 c8 d9 bb a9 03 fc 3c 29 67 5e 3d
       -0.014821087 -0.0066462257 0.030763464 0.0542976
000150 de 36 45 3c 5c 86 98 3c 0a 70 c0 bc 1f 71 3e bc
       0.012037007 0.018618755 -0.023490924 -0.01162365
000160 30 fc a3 bc eb 2f 93 bd 1f 9d 44 bd b5 84 cf 3d
       -0.020017713 -0.07186874 -0.048001405 0.10132734
000170 6d a1 9f 3d c1 a8 0b 3e 46 9d 2a bc fd b6 97 bd
       0.077944614 0.13638593 -0.0104134735 -0.07407949
000180 b1 3e 4f bd 6d 4b d9 bd 4a 92 8e bc 07 3c 0c 3e
       -0.050596897 -0.106100895 -0.01740374 0.13694774
000190 a9 66 de 3d 49 da f2 bc 12 d9 04 bc 6d f1 b1 bd
       0.108594246 -0.029645102 -0.008108394 -0.086886264
0001a0 1e 4a 0a bd 8b 6e 2b 3d 05 05 60 bc 30 91 9b bd
       -0.03376209 0.04185347 -0.013673072 -0.07596052
0001b0 20 5d 0c bc 82 6e 9f bd 49 fd e8 bc 1a f6 86 3c
       -0.008567125 -0.077847496 -0.028441088 0.016474772
0001c0 3e f2 1b 3e d6 c1 0c bc 64 6c 47 3d e1 af 53 bc
       0.15229127 -0.008591136 0.048687354 -0.012920351
0001d0 f0 4a b3 3d 0c 08 d7 bc b9 8d 58 bc 77 bf 24 3e
       0.087545276 -0.026248954 -0.013217383 0.16088663
0001e0 40 bd 82 3d cf 35 07 3e 80 ca 01 3e 14 18 f7 3d
       0.06383753 0.1320412 0.12674904 0.120651394
0001f0 29 b2 63 3d 03 07 4f bd 3a 55 04 3e 2c 0d 55 bd
       0.05558983 -0.050543796 0.12923136 -0.052014515
000200 f6 9f 24 bd fb 9f b1 bd 2f 73 0e 3d 1d 96 0b 3e
       -0.040191613 -0.08673092 0.034777816 0.13631482
000210 bb 65 e3 bb 28 24 cc 3d 8a fd 92 bc 42 fa c6 bc
       -0.0069396175 0.09967834 -0.017943162 -0.024289254
000220 08 16 1f 3d 62 e1 7e 3e 4f f0 18 3e c5 2e 95 3c
       0.03883937 0.24890664 0.1493542 0.018210778
000230 a7 4c c8 3b ee bf 87 bd 9b 4c 8f bd 72 ef 7b bb
       0.0061126533 -0.066284046 -0.06997033 -0.003844228
000240 0d 35 03 3e 59 be f9 3c ab e0 3a bc 38 e5 32 3d
       0.12813206 0.030486273 -0.011406104 0.04367563
000250 5f 30 56 3d 22 d0 f4 3d 62 de 7c 3c d9 dc 83 bd
       0.052292224 0.11953761 0.01543388 -0.06438608
000260 df 1f 33 bd 78 b6 76 bd f0 66 0c bc 42 33 44 3a
       -0.043731567 -0.06023261 -0.008569464 0.00074844446
000270 03 6a ba bc 02 12 e0 3c d5 69 05 3c 2b 7d 08 3e
       -0.022755628 0.027352337 0.008142908 0.13328998
000280 fe e0 f5 3d 84 dc d6 3c a1 3d 9a bc 7c 0c ef 3d
       0.120058045 0.026228197 -0.018828215 0.11672303
000290 a8 f8 90 3d 2b dc 2a 3c fc 65 18 3e 16 42 7a bc
       0.070786774 0.010428469 0.14882654 -0.015274545
0002a0 ec 33 31 3e e3 66 22 3d ef 66 0d 3e b9 10 5c 3d
       0.17304963 0.0396489 0.13808797 0.053726885
0002b0 8e aa 52 3d 12 7e 39 3e 38 dc a8 3c a2 89 04 bb
       0.051432185 0.18114498 0.020612821 -0.0020223637
0002c0 35 0d 31 3e 4f f2 63 bd ff 76 37 3e 4f 71 f7 3d
       0.17290194 -0.055651005 0.17916487 0.12082159
0002d0 d2 d5 37 bc 32 10 0c 3e 78 a8 8b 3d af b7 12 3e
       -0.011220412 0.13678053 0.06819242 0.14327882
0002e0 90 82 ff 3d a3 27 0f 3e 2c 52 fc ba 10 58 3c bd
       0.12476075 0.13979964 -0.0019250563 -0.04598242
0002f0 7c bd 17 3e 59 6e 52 bd 31 23 6a bd 18 23 db bc
       0.14818376 -0.051374767 -0.057162467 -0.026750132
000300 12 8e 21 3e 94 4f ac 3b d0 7e bd 3d 99 0d ad 3d
       0.15776852 0.00525851 0.09252703 0.08449859
000310 c4 9f fe 3d 9b bc 5d bd 5f 16 af 3c ff 6d a5 3c
       0.124328166 -0.054134946 0.021372972 0.020194052
000320 91 78 35 3e c1 b8 2f 3e 1c ff 36 bd a7 28 71 3c
       0.17721774 0.17160322 -0.044676885 0.014719165
000330 6c 67 a3 bd d3 5e 46 bd b2 8f af bd 84 88 45 bd
       -0.079787105 -0.048430275 -0.085723296 -0.048225895
000340 3c 23 f5 3d 03 b6 a5 3c a4 c4 33 3d e0 8b 01 3b
       0.11969611 0.020228392 0.043888703 0.001976721
000350 d2 fe 0f bd a2 57 fb 3c 93 a4 86 3d eb 34 06 bd
       -0.035155125 0.030681435 0.06574359 -0.03276531
000360 86 f2 9b bc d5 14 f7 39 b0 96 3a bc 05 d9 e7 bc
       -0.019036543 0.00047127032 -0.011388466 -0.028301725
000370 db 90 a4 bd d2 fd 02 3e 00 06 36 3e 6e de e7 3c
       -0.080354415 0.12792137 0.17775726 0.028304305
000380 a3 1d 09 3e 17 b0 64 3e 0d e2 18 3d a8 21 c4 bc
       0.13390212 0.22332798 0.037324954 -0.02394183
000390 0a a2 39 bd 30 b0 66 bd 3e b5 94 3d 45 0e 11 3e
       -0.045320548 -0.05632037 0.07261132 0.141656
0003a0 20 3d d8 bc e8 f8 09 bd 19 65 09 3d 0a de b3 3d
       -0.026396334 -0.03368464 0.03354368 0.08782585
0003b0 7b 21 1b 3d d5 fb b5 3a 90 77 8f 3e e6 f8 28 3e
       0.037873726 0.0013884256 0.28020906 0.16501197
0003c0 cc c9 30 bd ea 27 87 3d 43 07 c5 3c 57 a7 03 3d
       -0.0431612 0.0659941 0.024051314 0.03214201
0003d0 08 5c e8 3d 49 41 31 bd 5e 3e 6e 3d 0c bf 26 3e
       0.113456786 -0.04327515 0.058164947 0.16283816
0003e0 22 fb ae 3d e1 44 0b 3e cf 91 e9 bc 41 4f 4b 3e
       0.085439935 0.13600494 -0.02851191 0.19854452
0003f0 ca 61 d7 bd cf 54 57 3d e0 eb dc 3c d5 ed 0b 3e
       -0.10516699 0.052571114 0.026967943 0.13664944

fc3.weight f4 [2, 256]
000000 ea 42 57 bd d3 4c a1 bc d9 05 3d 3e d8 0c 02 3c
       -0.05255405 -0.019689953 0.18459262 0.0079376325
000010 80 22 67 be 45 0e 41 be 35 5b 79 3e d7 41 99 3e
       -0.22571754 -0.188531 0.24351199 0.29933044
000020 c3 25 33 3e 57 fd 0d 3e a9 b7 7d be 88 e8 8f be
       0.17494874 0.13866173 -0.24777092 -0.28107095
000030 74 24 df bd 8b ab ca bd 66 26 a0 bd 3b 6e 83 3e
       -0.10895625 -0.098960005 -0.07819824 0.25670037
000040 4e a9 bc 3d 9a 67 40 be 7d e8 b8 3e 66 f8 58 3e
       0.0921198 -0.18789521 0.36114874 0.21188506
000050 c4 21 83 bd 58 cf 16 be 05 90 89 bd a3 90 97 bd
       -0.06402925 -0.14727533 -0.06716923 -0.07400634
000060 6e 81 37 3e bb bc 5a be c8 91 05 be 98 15 98 be
       0.17920467 -0.21361057 -0.13043892 -0.29703975
000070 05 77 fa bc 58 06 d2 bc 9f 2d 12 3e e9 bf 78 be
       -0.030574331 -0.02563779 0.14275216 -0.24291958
000080 34 0d 93 be 08 b6 ba bd 2a 07 c9 bd 48 f5 76 3e
       -0.2872101 -0.09116751 -0.098158196 0.24117005
000090 b2 64 58 3e d9 22 7e 3e a7 13 49 be 65 9e 73 3e
       0.21132162 0.24817981 -0.19636403 0.23790891
0000a0 44 0e 9e 3e 4b 36 9e 3e 99 0e 91 bd 90 d5 16 be
       0.3087026 0.30900797 -0.070828624 -0.14729905
0000b0 71 29 45 3d 92 26 5e be 52 e3 2c be 66 10 88 be
       0.048135225 -0.21694401 -0.16883591 -0.2657501
0000c0 37 da 84 3e 4f fd 96 bd b8 8c 68 3e f4 76 eb bd
       0.25947735 -0.073725335 0.2270993 -0.11497298
0000d0 1b e0 a3 3e 84 d3 e4 bd 4f 1a 4d 3e 0d 0b 10 be
       0.32006916 -0.11173156 0.20029567 -0.14066716
0000e0 43 36 74 3e d7 d7 b9 3e 92 29 eb bd e1 c2 18 3e
       0.23848824 0.36297485 -0.11482538 0.1491809
0000f0 6f 18 b0 3e 86 2f 95 3e a8 d7 0c 3e 6e 6e 48 be
       0.3439364 0.2913782 0.13754141 -0.19573376
000100 09 80 a5 3e 9e 8b bb 3d b8 57 ab 3c da e7 ba bd
       0.32324246 0.09157489 0.020915851 -0.091262534
000110 74 fb 75 3e 4a ff 64 3d 08 14 ad 3e f4 2d 73 be
       0.24021703 0.055907525 0.33804345 -0.23747998
000120 42 d1 92 3e ed f4 30 3d a9 df 27 3e 6b 26 2d 3e
       0.28675276 0.04320233 0.16393913 0.16909187
000130 d1 68 2d 3e 4d 85 cb bb f6 41 5b be fc 6e 72 3e
       0.16934516 -0.006210959 -0.21411881 0.2367515
000140 ba 4b f3 bd 51 5c 82 3e 00 ae f0 bd c8 49 69 bc
       -0.11879678 0.25461057 -0.11751938 -0.014238782
000150 bc 68 e3 3d 7c d2 eb 3d ac 77 79 3e 6e 5a 37 3e
       0.11103961 0.11514756 0.24362057 0.1790559
000160 07 a3 1c 3e bd a6 a5 3e 90 98 25 3e 6e b4 15 be
       0.15296565 0.32353774 0.16171479 -0.1461961
000170 5b 7c 3b be 56 50 8e bd 45 e3 44 3e 19 32 ce 3e
       -0.18309157 -0.069489166 0.19227321 0.40272596
000180 34 11 62 3e 7e 1c f0 3d ae 55 32 3e df 59 52 be
       0.22076875 0.117241845 0.17415497 -0.20542096
000190 84 19 3c be 3b cf 3c 3e bf 8a 4e 3e 94 74 c3 3e
       -0.18369108 0.18438427 0.20170115 0.3817488
0001a0 10 0e ed 3d 5c c8 69 bd 37 33 e8 3d fc ce 71 3e
       0.11574948 -0.057075843 0.113378935 0.23614115
0001b0 3f 1b 70 3e f5 c2 d5 3e 6d 3b 29 3e 8a c0 6b 3e
       0.23447894 0.41750303 0.16526575 0.23022667
0001c0 8c 15 2f bd ac 89 e4 bd 20 54 f7 bd d9 65 a9 3e
       -0.042745158 -0.11159071 -0.120765924 0.33085516
0001d0 10 74 45 3d 18 3c 89 3e 67 5c 98 3e 5f ec 4d be
       0.04820639 0.2680366 0.29757997 -0.201097
0001e0 9e 22 5f 3e 6c 17 26 bc e7 74 aa bd 33 8d 58 be
       0.21790549 -0.01013742 -0.083230786 -0.21147613
0001f0 97 95 28 3e 8d 4d 7d 3e 2c ea 07 be 04 38 b7 3e
       0.16463314 0.24736615 -0.13272923 0.35784924
000200 aa 50 85 3e 8a 4c d8 3e 2a 26 0c 3e 4d 07 f3 bc
       0.26038104 0.42245895 0.13686433 -0.029666567
000210 69 27 41 3e 3f 7e 59 be ad f8 67 3d 05 ea e3 3d
       0.1886269 -0.21239565 0.05663364 0.1112862
000220 6f 12 3e 3e 60 8f 86 be 41 24 0d bd 0d 80 73 3e
       0.1856172 -0.2628126 -0.034458403 0.23779316
000230 4a 69 50 3e 62 61 03 3e 19 ea 09 3e 6d 96 51 bd
       0.20352665 0.12830117 0.13468207 -0.051168848
000240 64 a6 61 be 98 76 64 bd 72 7b 4c 3e 1c b7 f6 3c
       -0.22036129 -0.055777162 0.19968966 0.03011661
000250 7a 19 35 be e9 01 12 be 87 44 83 3e 41 84 83 3e
       -0.176855 -0.14258541 0.2563822 0.2568684
000260 0a d8 96 3e 74 b9 04 3e 90 56 95 3e 64 ac 0b 3e
       0.294617 0.1296137 0.29167604 0.1363998
000270 e7 eb 46 3e a8 48 13 3e 96 98 41 3e 78 53 52 be
       0.19425927 0.14383185 0.18905863 -0.20539653
000280 93 87 1d bd 95 55 59 3e 47 44 70 3e 92 e3 d7 bd
       -0.03845937 0.21224053 0.23463546 -0.105414525
000290 2a c5 e7 bd 78 05 72 3e 69 30 f1 bd 25 60 88 3e
       -0.11316903 0.23634899 -0.11776812 0.26635852
0002a0 19 77 52 be 12 d9 00 3e 92 d4 58 be 28 53 8c 3d
       -0.20553245 0.12582806 -0.21174839 0.06851798
0002b0 63 be bf bc d1 9f 7c be 06 c7 ae bd 1b 2a 6e 3e
       -0.023406213 -0.2467034 -0.085340545 0.2325825
0002c0 48 4a 6b be 02 32 23 3e ae 3e 3a be a4 89 36 be
       -0.22977555 0.15937045 -0.18187973 -0.17825943
0002d0 2d 53 4f 3e f6 87 60 be ed 7b 18 3e 9e ce 69 bd
       0.20246573 -0.21926865 0.14891024 -0.05708181
0002e0 1a 43 16 be f5 26 36 be 80 78 d4 3c bd 09 af 3e
       -0.14674035 -0.17788298 0.025936365 0.34187117
0002f0 a5 46 2d bd 8b 52 69 3e 86 b5 83 3e 50 f0 d8 3d
       -0.0423037 0.22785394 0.2572443 0.10592711
000300 9d 0b 75 be fa bf 64 3d 56 d1 a7 bc d0 f7 22 bd
       -0.23930211 0.055847146 -0.020485561 -0.039787114
000310 6f 93 74 3e 0c f8 64 3e 7d 70 b8 3d 70 e6 97 3e
       0.23884366 0.22360247 0.090058304 0.29667997
000320 c1 c6 69 be 93 da 68 be 50 19 8a 3e df 75 61 3d
       -0.22829725 -0.2273963 0.26972437 0.05504405
000330 db 03 90 3d 70 7e c2 3e f3 8c b9 3e fd b8 a4 3e
       0.07031985 0.3798709 0.36240348 0.32172385
000340 4b 24 10 be 81 07 15 3e 26 63 37 3e d8 e6 95 bd
       -0.14076345 0.14553644 0.17908916 -0.073194206
000350 11 d8 2e 3e f1 8f 3f bd 33 41 39 3e 5f 32 82 3e
       0.1707461 -0.046768133 0.18091278 0.25429055
000360 5a 21 37 3e ff ea 01 bd 00 d8 6f 3e 11 77 1e 3e
       0.17883816 -0.03171825 0.23422241 0.15475108
000370 21 47 88 3e d0 2d 27 be 67 7e 3f be e2 83 32 3e
       0.26616767 -0.1632607 -0.18700562 0.17433122
000380 a7 2b 86 bd c5 e3 54 be 03 9a 02 3e 6c fe 1f 3e
       -0.06551295 -0.20790012 0.12754063 0.15624398
000390 6b a7 94 3e e1 f9 ef 3d 6b ba 0d 3e f2 d7 84 be
       0.2903398 0.117175825 0.13840644 -0.25946003
0003a0 57 5c 68 3e e1 f2 37 3e b2 4f 67 3e d0 e4 63 3b
       0.22691475 0.17963745 0.22588995 0.0034773834
0003b0 ff 03 2d be d0 45 93 3e 52 f5 71 be b8 3b 50 be
       -0.16896056 0.287642 -0.23628739 -0.20335281
0003c0 55 f4 e5 3d 09 c9 22 bd 0b 75 72 3e f5 f6 76 3e
       0.11228243 -0.039742503 0.23677461 0.24117644
0003d0 bb ba 6f bd 32 5c 60 3e f2 57 03 bd 7e 7c a3 bd
       -0.05852769 0.2191017 -0.032066293 -0.079827294
0003e0 4b 25 80 3c 0b 23 db bd 13 a7 ba 3e f8 bb 7a be
       0.015642783 -0.10700043 0.36455593 -0.24485767
0003f0 f8 69 7b 3e 1c 50 98 bd 34 fb 02 3e 5a 0f d7 bd
       0.24552143 -0.07437155 0.12791139 -0.10500975

fc3.bias f4 [2]
000000 a7 cd de bd ea 39 6a bd
       -0.10879069 -0.057184137

bn1.weight f4 [256]
000000 94 cc 87 3f 4f c9 0b 3f 83 88 29 3f 8c 6e 89 3f
       1.0609307 0.5460405 0.66223925 1.0736861
000010 7b 14 3c 3f c0 94 bf 3e ec fc 82 3f fe 98 4d 3e
       0.7346875 0.37418175 1.0233436 0.20077893
000020 82 15 31 3f 98 a5 86 3f 26 ab 0d 3f 00 ff 1c 3f
       0.69173443 1.0519285 0.55339277 0.613266
000030 89 2e af 3e 69 ec d9 3e 6b f4 3c 3f f2 f8 c2 3e
       0.3421519 0.4256318 0.7381045 0.38080555
000040 a4 3d 1c 3f dc 41 20 3f bf a3 82 3e ca 44 82 3e
       0.61031556 0.62600493 0.25515553 0.25443107
000050 50 0f cc 3e 43 2d 1e 3f 14 00 95 3e b8 17 78 3f
       0.39855433 0.61787814 0.29101622 0.9691119
000060 00 5f 52 3f 60 24 e0 3e ac dd 68 3f 22 00 68 3f
       0.8217621 0.43777752 0.90963244 0.906252
000070 b9 2e 27 3f bd be d7 3e 71 6a 4c 3f 14 6d 69 3e
       0.6530567 0.4213771 0.79849917 0.22795516
000080 5f 75 33 3f 4f 92 1d be be 74 88 3f 58 49 8b 3f
       0.7010097 -0.15387844 1.0660627 1.0881758
000090 9d 89 8a 3f 70 41 59 3f 29 1c 38 3f d2 9a 56 3e
       1.0823246 0.84865475 0.7191797 0.20957497
0000a0 65 ad e6 3e fa 81 e5 3e 6d 0f 89 3f 11 9e 73 3e
       0.45054165 0.44825727 1.0707833 0.23790766
0000b0 53 fd 9c 3f 63 1d 65 3f 25 fa 01 3f 0f 5b a1 3e
       1.2264808 0.89497966 0.50772315 0.31514785
0000c0 1f b5 cf 3e 80 30 71 3f 0e 4e fa 3e d6 21 1a 3f
       0.40567872 0.9421463 0.48887676 0.6020788
0000d0 ac b8 7a 3f 95 70 80 3f 6a 39 5b 3f db e3 ec 3e
       0.97938037 1.0034357 0.8563448 0.4626759
0000e0 86 b5 fd 3e c6 fc 4c 3f 2a 8e 39 3f 90 04 c2 3e
       0.49552554 0.800732 0.7248255 0.37894106
0000f0 86 4d 58 3f bc 27 0d 3f 18 fd 87 3e 9e 9d b0 3e
       0.8449329 0.55138755 0.26560283 0.34495252
000100 63 03 70 3f 3c f8 c8 3e 76 43 a4 3e d3 5c 1e 3f
       0.9375517 0.39251888 0.3208272 0.6186039
000110 3c 16 47 3f a0 5c 50 3e 66 e4 83 3f ee 93 01 3f
       0.777683 0.20347834 1.0304077 0.5061635
000120 a9 91 62 3f e3 e2 67 3f e4 0c 9b 3e 59 b3 d6 3e
       0.8850351 0.90580577 0.30283272 0.41933706
000130 c4 60 49 3f d3 75 08 3f dd c1 41 3f 90 6d c0 3e
       0.7866328 0.53304785 0.75686437 0.3758359
000140 e8 ae 6b 3e 39 cb b3 3e 28 f8 84 3e 78 73 da 3e
       0.2301594 0.35115984 0.25970578 0.4266622
000150 ab 80 68 3f 08 48 25 3f c8 4b 4e 3f a4 18 f6 3e
       0.9082133 0.64563036 0.80584383 0.48065674
000160 7e 07 da 3e bb 6e 51 3f 93 1f ea 3e e5 35 65 3f
       0.4258384 0.81809586 0.45727214 0.8953536
000170 40 92 80 3e 5e 63 20 3e 4d c8 bf 3e ab 8d 2b 3f
       0.2511158 0.15662906 0.37457505 0.67013043
000180 f8 cd 9d 3e 07 e7 36 3f d3 b2 67 3f 8e 95 4d 3e
       0.30821204 0.7144627 0.9050724 0.20076582
000190 cb d0 82 3f 36 c5 74 3f a6 8c 27 3f 43 70 03 3f
       1.0219969 0.9561342 0.6544899 0.5134317
0001a0 86 f5 f9 3e 77 9b c6 3e 00 3b 43 3f c1 88 80 3f
       0.48820132 0.38790485 0.762619 1.0041734
0001b0 f5 47 7f 3f 29 9a 85 3f 71 bc 0f 3f 53 6c 5c 3f
       0.9971917 1.0437671 0.56146914 0.8610279
0001c0 9b f6 8b 3e 01 c7 ec 3e 5e 60 8d 3f 1c 80 fe 3e
       0.27336583 0.46245578 1.1045034 0.49707115
0001d0 e1 46 9e 3e 52 c3 16 3f 77 ee 86 3f c7 08 93 3f
       0.3091345 0.58891785 1.0541524 1.1487054
0001e0 12 be 6b 3f 59 da 43 3f 52 ec 74 3f 5b e2 75 3f
       0.920869 0.7650505 0.95673096 0.96048516
0001f0 ff b5 fd 3e 3a d6 5c 3f b7 17 80 3f 89 de 50 3f
       0.49552915 0.86264384 1.0007237 0.8158956
000200 f0 00 1c 3e 63 95 a3 3e 9f 5a c6 3e 52 12 15 3f
       0.15234733 0.3194991 0.38741013 0.5823108
000210 c0 87 8b 3f 69 25 63 3f 53 20 32 3f 33 5c 43 3f
       1.0900803 0.8872896 0.6958057 0.7631256
000220 9f cd 5c 3f f4 9f 8c 3f b2 ce 2d 3e 3a 67 60 3f
       0.8625125 1.0986314 0.16973379 0.8765751
000230 47 9c 53 3f 78 ae 30 3f aa cf a9 3e 9a 8e 0d 3f
       0.82660335 0.6901622 0.33166248 0.5529572
000240 d1 1d f9 3e da 8b dc 3e 95 72 cb 3e 38 e1 14 3f
       0.4865556 0.43075448 0.39735857 0.58156157
000250 47 05 81 3f 03 f0 0e 3f c4 cb 26 3e ed 13 86 3e
       1.0079736 0.5583498 0.16288668 0.26187077
000260 6f c1 3b 3e ed e3 7a 3e 20 62 b3 3e f0 06 ad 3e
       0.18335508 0.2450101 0.350358 0.33794355
000270 61 48 5d 3f 5b 56 2c 3f 99 0c 3e 3f 62 03 25 3f
       0.86438566 0.6731927 0.7423797 0.64458287
000280 9e 5c 13 3f ba a1 24 3f 86 c7 0a 3e 0a 6d 62 3f
       0.575632 0.64309275 0.13552675 0.8844763
000290 86 2f 8e 3e 12 84 29 3f 80 5c 24 3f a8 bb 97 3e
       0.27770633 0.6621715 0.64203644 0.29635358
0002a0 64 df 43 3f e6 15 94 3e 43 69 25 3f 23 67 89 3f
       0.7651274 0.28922957 0.6461374 1.07346
0002b0 58 7a 13 3f b5 2e 59 3f d4 2a 37 3f d1 d4 90 3f
       0.57608557 0.84836894 0.71549726 1.1314946
0002c0 13 13 64 3f b9 06 8b 3f 31 04 8f 3f e1 28 8e 3f
       0.89091605 1.0861427 1.1173154 1.1106225
0002d0 cd ed b0 3e ba a6 c8 3e 58 3b d7 3e eb 1c 4f 3f
       0.34556428 0.39189702 0.42037463 0.809035
0002e0 53 ca bd 3e a7 0d 73 3f 96 89 a2 3e 76 61 c2 3e
       0.37068424 0.94942707 0.31745595 0.37964982
0002f0 79 d0 ba 3e 26 04 c6 3e 78 2b 82 3f ba 58 28 3e
       0.36487177 0.3867504 1.0169516 0.16440096
000300 cd 06 78 3f 68 48 38 3f de ea 86 3f 05 4e 63 3f
       0.9688538 0.71985483 1.0540426 0.88790923
000310 c2 d6 4e 3f 0c 2c 38 3e e5 23 9a 3f 53 d1 5b 3f
       0.80796444 0.17985553 1.2042204 0.8586628
000320 c2 ab 81 3e ae ed 1e 3f 12 37 de 3e f6 56 2e 3f
       0.25326353 0.6208142 0.4340139 0.6810144
000330 e1 9a 75 3f 6f 2d 76 3f e2 ab 7f 3f 4d ed 29 3f
       0.9593945 0.96163076 0.9987165 0.6637772
000340 e5 71 60 3f 11 90 ac 3e d7 2f 10 3f b8 65 59 3f
       0.8767379 0.33703664 0.56323 0.84920835
000350 17 a6 89 3f 5c af 92 3f 3b 8d 48 3f 43 06 b5 3e
       1.0753812 1.1459765 0.783405 0.3535634
000360 0f 3e 7d 3f 43 68 40 3f 56 63 07 3f c8 03 09 3f
       0.9892282 0.7515909 0.5288595 0.53521395
000370 cb 09 22 3f 2d 62 4b 3f ce 5a c3 3e 1f 90 52 3f
       0.6329619 0.7944668 0.38155216 0.8225116
000380 9c 9e 6c 3f ca b8 41 3f 6b 17 7b 3f fd b5 17 3f
       0.9242952 0.7567259 0.9808261 0.5926207
000390 12 13 51 3f b7 de 83 3f e2 b5 58 3f b7 26 8f 3f
       0.81669724 1.0302342 0.8465253 1.118369
0003a0 6e 1e 07 3f ac 63 8b 3f b6 95 08 3f ae df 3a 3f
       0.52780807 1.0889792 0.5335344 0.7299756
0003b0 a7 af 29 3f 0f 79 88 3e e6 cc cb 3e 4e a7 25 3f
       0.6628365 0.2665486 0.39804763 0.6470841
0003c0 6f a4 c6 3e e2 66 0c 3f c5 3f 88 3f 68 5f 32 3f
       0.38797328 0.54844487 1.0644461 0.6967683
0003d0 f8 36 c9 3e ad 1c 23 3f 40 11 bf 3e 6e 98 89 3f
       0.3929975 0.6371563 0.37317848 1.0749643
0003e0 19 8c 7d 3e 1c 69 63 3f fd 6f fc 3e c6 ce 17 3f
       0.24760474 0.8883226 0.4930419 0.59299886
0003f0 e7 9d 1c 3e 70 f3 7c 3f c6 dd 48 3e 02 fb af 3e
       0.1529461 0.98808956 0.1961585 0.3437119

bn1.bias f4 [256]
000000 4b 03 c0 3c 0b da ed 3c da 90 f7 bd 64 c0 56 3b
       0.02343907 0.029034635 -0.12088175 0.0032768482
000010 0b f2 f4 3c 94 cb bb bd 56 5f b1 bb eb 7e ff bc
       0.029900571 -0.09169689 -0.0054129763 -0.031188449
000020 97 b6 3b be b1 57 19 3d a3 70 f9 bd 48 01 13 3d
       -0.18331371 0.037437145 -0.12179687 0.035889894
000030 62 1a 23 be c5 97 b4 3d 83 a2 ab bd f3 fd 03 bd
       -0.15928033 0.0881801 -0.08380606 -0.032224607
000040 95 39 1f 3d 06 b3 03 be f7 e9 60 be 99 bd ea 3c
       0.038873274 -0.12861261 -0.2196425 0.02865486
000050 32 75 08 be d7 e8 89 3d 02 7d d4 bd 48 b2 ea 3c
       -0.13325956 0.06733864 -0.10375406 0.028649464
000060 e4 02 8d bd 2f 98 f1 bc cc 9d e6 bd 85 e3 47 bd
       -0.06885317 -0.029491512 -0.11260566 -0.048800964
000070 18 d7 f1 bd 65 f0 09 3d d4 22 3e bb 1d a8 cc bd
       -0.11808604 0.033676524 -0.0029012458 -0.099930026
000080 78 fc d8 bd 8f 5d 62 3e 5e 95 86 bb 38 4f 66 bd
       -0.105950296 0.22106002 -0.0041071614 -0.056227893
000090 a0 23 3a 3d ac a8 89 3c 91 57 9d 3b e4 7a 6f be
       0.04544413 0.016804062 0.0048016985 -0.23386723
0000a0 c0 b3 47 3d a8 7e a2 bd 6a 13 56 3d f0 c7 43 3d
       0.048755407 -0.07934314 0.05226461 0.047798097
0000b0 04 23 0a bd 7d 3d d0 3c b3 b0 19 bb bb 1e e4 3d
       -0.0337248 0.025419945 -0.0023451268 0.11138674
0000c0 10 f4 fe bd 0a e7 a4 bb 12 be 2b bd 92 5f e7 bc
       -0.12448895 -0.005032425 -0.041929312 -0.028243814
0000d0 9e c1 c4 bd 9c f4 91 bd f4 21 68 3d cd 4b 17 be
       -0.09607242 -0.07126734 0.056673005 -0.1477501
0000e0 e5 f5 16 3d e6 d7 46 3d 0f 99 01 be ca f8 05 3d
       0.036855597 0.04854574 -0.12656043 0.032707967
0000f0 66 f0 86 bc 17 26 03 be 49 b6 42 be da 53 6b 3d
       -0.016472053 -0.12807499 -0.19014849 0.057453014
000100 21 b5 a9 bc d7 39 16 be 8f 08 8f 3c 44 52 50 3d
       -0.020716252 -0.14670502 0.017460136 0.050859705
000110 0b 26 aa bd 7f 4d 44 be 51 24 6d 3d dc 5c 70 3d
       -0.08308037 -0.19170187 0.057895962 0.058682308
000120 d5 ed 70 bb a9 7a 2e 3d 91 3d 57 3d e7 7a dd bd
       -0.0036762853 0.042597447 0.05254895 -0.108144574
000130 5e 26 49 3d 58 95 0d be 11 6c b8 bd ea 3d 23 3d
       0.049108855 -0.13826501 -0.09004987 0.039853968
000140 09 69 c4 bd 0f df 5b bd f7 f6 c7 bd 4f 34 8f bd
       -0.09590346 -0.053679522 -0.09763902 -0.06992399
000150 95 df b4 bd 4d 77 fc bd fe d0 e6 bd 6d fa 6e bc
       -0.088317074 -0.12327442 -0.11270331 -0.014586073
000160 1b 0f a0 bb 73 56 60 bd d1 b3 3a 3d 50 09 44 3d
       -0.004884613 -0.054769944 0.045581643 0.047860444
000170 21 72 8a 3d 61 4b 19 bd f6 be 01 be ad a8 fa 3a
       0.067600496 -0.037425403 -0.12670502 0.0019123756
000180 fa 52 20 3b a0 cd 6e bd 62 b7 9e bd 5f 09 6a be
       0.002446352 -0.058301568 -0.07749821 -0.22855137
000190 b1 12 d9 bd 5c d3 34 3d bb 77 a4 bc 2e 97 cb bc
       -0.10599268 0.04414688 -0.020076623 -0.024852362
0001a0 77 b4 dc bd b3 08 81 bd 6b ee 17 3c 06 a8 94 ba
       -0.107766084 -0.06300487 0.009273152 -0.0011341579
0001b0 24 f7 23 3d 1a b0 ba bd 66 36 d5 3c 40 33 6f 3a
       0.040030614 -0.0911562 0.026026916 0.00091247633
0001c0 cc 96 13 bc b2 8e 38 3d 48 f0 38 bb 58 0c b1 bd
       -0.009008121 0.04505796 -0.002821939 -0.086449325
0001d0 bf 9f 1f 3d 8e a8 cd 3c 38 89 7a bd cc e0 27 3d
       0.038970705 0.025104787 -0.06116602 0.040985867
0001e0 be 35 d8 3d 15 b1 4a bc 48 ca cb bd 12 eb a9 bd
       0.105571255 -0.012371321 -0.099506915 -0.08296789
0001f0 c8 54 90 bc c7 43 ca bd 1c bf 2b 3d d4 81 6e 3d
       -0.017618552 -0.09876209 0.041930303 0.058229282
000200 63 06 1a 3e db 67 05 be dd 15 4e 3c ca 0d 92 bc
       0.15041499 -0.13027899 0.012578455 -0.01782884
000210 7e 3c 13 be 19 6e 49 3d 87 3e cc 3c c7 ee cd 3d
       -0.14378545 0.049177263 0.02493216 0.10055309
000220 be 41 b6 3d a7 dc 39 bd 6b 07 55 3e 5d 85 fe bc
       0.08899258 -0.045376446 0.20803611 -0.031069452
000230 94 c0 b6 bd dc b6 b7 bd b0 f9 f3 bc 84 da 66 3c
       -0.0892345 -0.089704245 -0.029782146 0.014090184
000240 ad 7f 71 bc fa aa e0 3c c1 93 48 3d 2c 49 13 3d
       -0.014739913 0.027425278 0.048969034 0.035958454
000250 06 22 56 3d b6 16 4a 3d 87 cb d3 bd 17 30 9d 3b
       0.05227854 0.049338065 -0.10341554 0.0047969925
000260 a2 c1 eb 3c fe f6 64 bc 99 bd bc bd ef fc 36 3e
       0.028778855 -0.013974903 -0.092158504 0.17869924
000270 58 76 be bd 02 33 d5 3d 72 f8 66 3d 97 87 62 3d
       -0.09299916 0.104101196 0.05638928 0.05530509
000280 86 9c c8 bc 17 f9 d7 bd 2b f7 83 be e6 e3 b1 3c
       -0.024488699 -0.10545557 -0.25774512 0.021715116
000290 65 f2 10 3d 99 e6 12 bc ab c7 c8 bd 73 05 d5 bc
       0.035387415 -0.008966112 -0.09803709 -0.026003575
0002a0 fc 02 63 3d 9c 47 9c 3c a1 98 13 bd 16 a5 f8 3b
       0.055422768 0.019077115 -0.03603423 0.007588039
0002b0 e4 81 46 be 5f 95 fc bd 03 51 26 3d 60 22 9c bd
       -0.19385487 -0.12333178 0.040604603 -0.07623744
0002c0 f8 dc 07 3e 0c 87 79 3d 2b 0b 39 3d 13 41 7c 3d
       0.13267887 0.060919806 0.045176666 0.061585497
0002d0 d8 1f 33 bd ea 65 9e 3c 62 4a 12 be c1 49 fc bd
       -0.04373154 0.019335706 -0.14286187 -0.12318755
0002e0 64 d1 c7 bd b6 2d 9c 3c 5b f9 0f be 35 cd 9e 3d
       -0.09756735 0.019064765 -0.14059965 0.07753984
0002f0 4c d7 d9 bc d7 3f 24 be b7 0c 1a 3d 3e 72 0d 3c
       -0.02659192 -0.16039978 0.037609782 0.0086331945
000300 0c 24 05 bd d7 30 1e 3d ea c4 49 3d 94 bc c6 bd
       -0.03250508 0.038620796 0.049260058 -0.09703937
000310 71 cd 91 bd 92 1e 43 be cb 4f fe bd a9 b1 ea bd
       -0.07119263 -0.1905463 -0.12417563 -0.11459667
000320 f4 68 dc 3d 57 47 58 bd 25 d7 09 be b0 d9 cb bd
       0.10762206 -0.05280241 -0.13460977 -0.0995363
000330 8f f5 f0 3c f7 5c fd 3c a2 c8 3c be 8d 8b 75 3d
       0.029413966 0.030928118 -0.1843591 0.05994754
000340 6e 3d bd ba e6 48 8d 3d 44 73 73 3d f6 27 9b 3b
       -0.0014437863 0.0689867 0.059436098 0.0047349883
000350 70 c6 14 be d2 07 a1 3d 7e 4a 8b 3d eb 3d 3c 3d
       -0.14528823 0.0786282 0.06801318 0.045957487
000360 0a aa 4a 3d 53 87 1d 3c c4 26 3f 3d 53 ae be bd
       0.049478568 0.009614783 0.04666783 -0.093105935
000370 3d 08 d8 bb fc 6b 1a bd c2 3c 38 bd 2e e9 27 bd
       -0.006592779 -0.03770064 -0.04497982 -0.04099386
000380 88 ee 85 3d c8 1a c4 3b 44 4d 7a 3d 2b 7e fd bd
       0.06539637 0.005984638 0.061108842 -0.1237758
000390 de c9 be bd 9d fd 3d 3d ad 2e 61 bd a8 f6 f9 bc
       -0.09315847 0.046384443 -0.054976154 -0.030513123
0003a0 7a 01 47 3d 70 4b 48 3d 18 b4 0f 3d 88 38 91 bd
       0.048585393 0.048900068 0.03508386 -0.070908606
0003b0 49 cb 98 bd 27 e5 ce bd 40 72 11 be b7 7e f9 bd
       -0.074606486 -0.10102301 -0.14203739 -0.12182372
0003c0 8f 9a 33 be 8d ed 2a be 6f 54 89 3d 7c 00 38 be
       -0.17539428 -0.16692181 0.067055576 -0.17968935
0003d0 34 a0 a4 bd 93 79 ce 3c 90 57 77 3d 74 21 a4 bd
       -0.08038369 0.025204455 0.06038624 -0.08014193
0003e0 97 d2 3d 3d f2 a7 a1 bc 77 b3 4d bc 3b ba 34 3d
       0.046343412 -0.019733403 -0.012554995 0.044122916
0003f0 76 21 58 3c 5f 30 ce bd 1b fe 1f 3d c7 5b aa 3d
       0.013191571 -0.1006782 0.039060693 0.083182864
